{"format": "graph-model", "generatedBy": "2.6.0", "convertedBy": "TensorFlow.js Converter v3.11.0", "signature": {"inputs": {"embedding_1_input": {"name": "embedding_1_input:0", "dtype": "DT_FLOAT", "tensorShape": {"dim": [{"size": "-1"}, {"size": "4"}]}}}, "outputs": {"dense_1": {"name": "Identity:0", "dtype": "DT_FLOAT", "tensorShape": {"dim": [{"size": "-1"}, {"size": "50000"}]}}}}, "modelTopology": {"node": [{"name": "StatefulPartitionedCall/sequential_1/bidirectional_3/forward_lstm_3/PartitionedCall/TensorArrayV2_1/element_shape", "op": "Const", "attr": {"value": {"tensor": {"dtype": "DT_INT32", "tensorShape": {"dim": [{"size": "2"}]}}}, "dtype": {"type": "DT_INT32"}}}, {"name": "StatefulPartitionedCall/sequential_1/bidirectional_3/forward_lstm_3/zeros_1/packed/1", "op": "Const", "attr": {"dtype": {"type": "DT_INT32"}, "value": {"tensor": {"dtype": "DT_INT32", "tensorShape": {}}}}}, {"name": "StatefulPartitionedCall/sequential_1/bidirectional_3/forward_lstm_3/zeros_1/Const", "op": "Const", "attr": {"value": {"tensor": {"dtype": "DT_FLOAT", "tensorShape": {}}}, "dtype": {"type": "DT_FLOAT"}}}, {"name": "StatefulPartitionedCall/sequential_1/bidirectional_3/forward_lstm_3/PartitionedCall/TensorArrayUnstack/TensorListFromTensor/element_shape", "op": "Const", "attr": {"dtype": {"type": "DT_INT32"}, "value": {"tensor": {"dtype": "DT_INT32", "tensorShape": {"dim": [{"size": "2"}]}}}}}, {"name": "StatefulPartitionedCall/sequential_1/bidirectional_3/forward_lstm_3/Read/ReadVariableOp", "op": "Const", "attr": {"dtype": {"type": "DT_FLOAT"}, "value": {"tensor": {"dtype": "DT_FLOAT", "tensorShape": {"dim": [{"size": "200"}, {"size": "400"}]}}}}}, {"name": "StatefulPartitionedCall/sequential_1/bidirectional_3/forward_lstm_3/strided_slice/stack", "op": "Const", "attr": {"dtype": {"type": "DT_INT32"}, "value": {"tensor": {"dtype": "DT_INT32", "tensorShape": {"dim": [{"size": "1"}]}}}}}, {"name": "StatefulPartitionedCall/sequential_1/bidirectional_3/forward_lstm_3/strided_slice/stack_1", "op": "Const", "attr": {"value": {"tensor": {"dtype": "DT_INT32", "tensorShape": {"dim": [{"size": "1"}]}}}, "dtype": {"type": "DT_INT32"}}}, {"name": "StatefulPartitionedCall/sequential_1/bidirectional_3/forward_lstm_3/strided_slice/stack_2", "op": "Const", "attr": {"dtype": {"type": "DT_INT32"}, "value": {"tensor": {"dtype": "DT_INT32", "tensorShape": {"dim": [{"size": "1"}]}}}}}, {"name": "StatefulPartitionedCall/sequential_1/bidirectional_3/forward_lstm_3/zeros/packed/1", "op": "Const", "attr": {"dtype": {"type": "DT_INT32"}, "value": {"tensor": {"dtype": "DT_INT32", "tensorShape": {}}}}}, {"name": "StatefulPartitionedCall/sequential_1/bidirectional_3/forward_lstm_3/zeros/Const", "op": "Const", "attr": {"dtype": {"type": "DT_FLOAT"}, "value": {"tensor": {"dtype": "DT_FLOAT", "tensorShape": {}}}}}, {"name": "StatefulPartitionedCall/sequential_1/bidirectional_3/forward_lstm_3/Read_1/ReadVariableOp", "op": "Const", "attr": {"dtype": {"type": "DT_FLOAT"}, "value": {"tensor": {"dtype": "DT_FLOAT", "tensorShape": {"dim": [{"size": "100"}, {"size": "400"}]}}}}}, {"name": "StatefulPartitionedCall/sequential_1/bidirectional_3/forward_lstm_3/Read_2/ReadVariableOp", "op": "Const", "attr": {"value": {"tensor": {"dtype": "DT_FLOAT", "tensorShape": {"dim": [{"size": "400"}]}}}, "dtype": {"type": "DT_FLOAT"}}}, {"name": "StatefulPartitionedCall/sequential_1/bidirectional_3/forward_lstm_3/PartitionedCall/time", "op": "Const", "attr": {"dtype": {"type": "DT_INT32"}, "value": {"tensor": {"dtype": "DT_INT32", "tensorShape": {}}}}}, {"name": "StatefulPartitionedCall/sequential_1/bidirectional_3/forward_lstm_3/PartitionedCall/transpose/perm", "op": "Const", "attr": {"dtype": {"type": "DT_INT32"}, "value": {"tensor": {"dtype": "DT_INT32", "tensorShape": {"dim": [{"size": "3"}]}}}}}, {"name": "StatefulPartitionedCall/sequential_1/bidirectional_3/forward_lstm_3/PartitionedCall/strided_slice/stack", "op": "Const", "attr": {"value": {"tensor": {"dtype": "DT_INT32", "tensorShape": {"dim": [{"size": "1"}]}}}, "dtype": {"type": "DT_INT32"}}}, {"name": "StatefulPartitionedCall/sequential_1/bidirectional_3/forward_lstm_3/PartitionedCall/strided_slice/stack_1", "op": "Const", "attr": {"dtype": {"type": "DT_INT32"}, "value": {"tensor": {"dtype": "DT_INT32", "tensorShape": {"dim": [{"size": "1"}]}}}}}, {"name": "StatefulPartitionedCall/sequential_1/bidirectional_3/forward_lstm_3/PartitionedCall/strided_slice/stack_2", "op": "Const", "attr": {"value": {"tensor": {"dtype": "DT_INT32", "tensorShape": {"dim": [{"size": "1"}]}}}, "dtype": {"type": "DT_INT32"}}}, {"name": "StatefulPartitionedCall/sequential_1/bidirectional_3/forward_lstm_3/PartitionedCall/while/loop_counter", "op": "Const", "attr": {"dtype": {"type": "DT_INT32"}, "value": {"tensor": {"dtype": "DT_INT32", "tensorShape": {}}}}}, {"name": "StatefulPartitionedCall/sequential_1/bidirectional_3/forward_lstm_3/PartitionedCall/TensorArrayV2Stack/TensorListStack/element_shape", "op": "Const", "attr": {"value": {"tensor": {"dtype": "DT_INT32", "tensorShape": {"dim": [{"size": "2"}]}}}, "dtype": {"type": "DT_INT32"}}}, {"name": "StatefulPartitionedCall/sequential_1/bidirectional_3/forward_lstm_3/PartitionedCall/strided_slice_2/stack", "op": "Const", "attr": {"value": {"tensor": {"dtype": "DT_INT32", "tensorShape": {"dim": [{"size": "1"}]}}}, "dtype": {"type": "DT_INT32"}}}, {"name": "StatefulPartitionedCall/sequential_1/bidirectional_3/forward_lstm_3/PartitionedCall/strided_slice_2/stack_1", "op": "Const", "attr": {"dtype": {"type": "DT_INT32"}, "value": {"tensor": {"dtype": "DT_INT32", "tensorShape": {"dim": [{"size": "1"}]}}}}}, {"name": "StatefulPartitionedCall/sequential_1/bidirectional_3/forward_lstm_3/PartitionedCall/strided_slice_2/stack_2", "op": "Const", "attr": {"value": {"tensor": {"dtype": "DT_INT32", "tensorShape": {"dim": [{"size": "1"}]}}}, "dtype": {"type": "DT_INT32"}}}, {"name": "StatefulPartitionedCall/sequential_1/bidirectional_3/backward_lstm_3/PartitionedCall/TensorArrayV2_1/element_shape", "op": "Const", "attr": {"dtype": {"type": "DT_INT32"}, "value": {"tensor": {"dtype": "DT_INT32", "tensorShape": {"dim": [{"size": "2"}]}}}}}, {"name": "StatefulPartitionedCall/sequential_1/bidirectional_3/backward_lstm_3/zeros_1/packed/1", "op": "Const", "attr": {"dtype": {"type": "DT_INT32"}, "value": {"tensor": {"dtype": "DT_INT32", "tensorShape": {}}}}}, {"name": "StatefulPartitionedCall/sequential_1/bidirectional_3/backward_lstm_3/zeros_1/Const", "op": "Const", "attr": {"value": {"tensor": {"dtype": "DT_FLOAT", "tensorShape": {}}}, "dtype": {"type": "DT_FLOAT"}}}, {"name": "StatefulPartitionedCall/sequential_1/bidirectional_3/backward_lstm_3/PartitionedCall/ReverseV2/axis", "op": "Const", "attr": {"dtype": {"type": "DT_INT32"}, "value": {"tensor": {"dtype": "DT_INT32", "tensorShape": {"dim": [{"size": "1"}]}}}}}, {"name": "StatefulPartitionedCall/sequential_1/bidirectional_3/backward_lstm_3/PartitionedCall/TensorArrayUnstack/TensorListFromTensor/element_shape", "op": "Const", "attr": {"dtype": {"type": "DT_INT32"}, "value": {"tensor": {"dtype": "DT_INT32", "tensorShape": {"dim": [{"size": "2"}]}}}}}, {"name": "StatefulPartitionedCall/sequential_1/bidirectional_3/backward_lstm_3/Read/ReadVariableOp", "op": "Const", "attr": {"dtype": {"type": "DT_FLOAT"}, "value": {"tensor": {"dtype": "DT_FLOAT", "tensorShape": {"dim": [{"size": "200"}, {"size": "400"}]}}}}}, {"name": "StatefulPartitionedCall/sequential_1/bidirectional_3/backward_lstm_3/strided_slice/stack", "op": "Const", "attr": {"value": {"tensor": {"dtype": "DT_INT32", "tensorShape": {"dim": [{"size": "1"}]}}}, "dtype": {"type": "DT_INT32"}}}, {"name": "StatefulPartitionedCall/sequential_1/bidirectional_3/backward_lstm_3/strided_slice/stack_1", "op": "Const", "attr": {"dtype": {"type": "DT_INT32"}, "value": {"tensor": {"dtype": "DT_INT32", "tensorShape": {"dim": [{"size": "1"}]}}}}}, {"name": "StatefulPartitionedCall/sequential_1/bidirectional_3/backward_lstm_3/strided_slice/stack_2", "op": "Const", "attr": {"value": {"tensor": {"dtype": "DT_INT32", "tensorShape": {"dim": [{"size": "1"}]}}}, "dtype": {"type": "DT_INT32"}}}, {"name": "StatefulPartitionedCall/sequential_1/bidirectional_3/backward_lstm_3/zeros/packed/1", "op": "Const", "attr": {"dtype": {"type": "DT_INT32"}, "value": {"tensor": {"dtype": "DT_INT32", "tensorShape": {}}}}}, {"name": "StatefulPartitionedCall/sequential_1/bidirectional_3/backward_lstm_3/zeros/Const", "op": "Const", "attr": {"value": {"tensor": {"dtype": "DT_FLOAT", "tensorShape": {}}}, "dtype": {"type": "DT_FLOAT"}}}, {"name": "StatefulPartitionedCall/sequential_1/bidirectional_3/backward_lstm_3/Read_1/ReadVariableOp", "op": "Const", "attr": {"dtype": {"type": "DT_FLOAT"}, "value": {"tensor": {"dtype": "DT_FLOAT", "tensorShape": {"dim": [{"size": "100"}, {"size": "400"}]}}}}}, {"name": "StatefulPartitionedCall/sequential_1/bidirectional_3/backward_lstm_3/Read_2/ReadVariableOp", "op": "Const", "attr": {"value": {"tensor": {"dtype": "DT_FLOAT", "tensorShape": {"dim": [{"size": "400"}]}}}, "dtype": {"type": "DT_FLOAT"}}}, {"name": "StatefulPartitionedCall/sequential_1/bidirectional_3/backward_lstm_3/PartitionedCall/time", "op": "Const", "attr": {"value": {"tensor": {"dtype": "DT_INT32", "tensorShape": {}}}, "dtype": {"type": "DT_INT32"}}}, {"name": "StatefulPartitionedCall/sequential_1/bidirectional_2/forward_lstm_2/PartitionedCall/TensorArrayV2_1/element_shape", "op": "Const", "attr": {"value": {"tensor": {"dtype": "DT_INT32", "tensorShape": {"dim": [{"size": "2"}]}}}, "dtype": {"type": "DT_INT32"}}}, {"name": "StatefulPartitionedCall/sequential_1/bidirectional_2/forward_lstm_2/zeros_1/packed/1", "op": "Const", "attr": {"dtype": {"type": "DT_INT32"}, "value": {"tensor": {"dtype": "DT_INT32", "tensorShape": {}}}}}, {"name": "StatefulPartitionedCall/sequential_1/bidirectional_2/forward_lstm_2/zeros_1/Const", "op": "Const", "attr": {"dtype": {"type": "DT_FLOAT"}, "value": {"tensor": {"dtype": "DT_FLOAT", "tensorShape": {}}}}}, {"name": "StatefulPartitionedCall/sequential_1/bidirectional_2/forward_lstm_2/PartitionedCall/TensorArrayUnstack/TensorListFromTensor/element_shape", "op": "Const", "attr": {"value": {"tensor": {"dtype": "DT_INT32", "tensorShape": {"dim": [{"size": "2"}]}}}, "dtype": {"type": "DT_INT32"}}}, {"name": "StatefulPartitionedCall/sequential_1/bidirectional_2/forward_lstm_2/Read/ReadVariableOp", "op": "Const", "attr": {"dtype": {"type": "DT_FLOAT"}, "value": {"tensor": {"dtype": "DT_FLOAT", "tensorShape": {"dim": [{"size": "100"}, {"size": "400"}]}}}}}, {"name": "StatefulPartitionedCall/sequential_1/bidirectional_2/forward_lstm_2/strided_slice/stack", "op": "Const", "attr": {"value": {"tensor": {"dtype": "DT_INT32", "tensorShape": {"dim": [{"size": "1"}]}}}, "dtype": {"type": "DT_INT32"}}}, {"name": "StatefulPartitionedCall/sequential_1/bidirectional_2/forward_lstm_2/strided_slice/stack_1", "op": "Const", "attr": {"dtype": {"type": "DT_INT32"}, "value": {"tensor": {"dtype": "DT_INT32", "tensorShape": {"dim": [{"size": "1"}]}}}}}, {"name": "StatefulPartitionedCall/sequential_1/bidirectional_2/forward_lstm_2/strided_slice/stack_2", "op": "Const", "attr": {"dtype": {"type": "DT_INT32"}, "value": {"tensor": {"dtype": "DT_INT32", "tensorShape": {"dim": [{"size": "1"}]}}}}}, {"name": "StatefulPartitionedCall/sequential_1/bidirectional_2/forward_lstm_2/zeros/packed/1", "op": "Const", "attr": {"dtype": {"type": "DT_INT32"}, "value": {"tensor": {"dtype": "DT_INT32", "tensorShape": {}}}}}, {"name": "StatefulPartitionedCall/sequential_1/bidirectional_2/forward_lstm_2/zeros/Const", "op": "Const", "attr": {"dtype": {"type": "DT_FLOAT"}, "value": {"tensor": {"dtype": "DT_FLOAT", "tensorShape": {}}}}}, {"name": "StatefulPartitionedCall/sequential_1/bidirectional_2/forward_lstm_2/Read_1/ReadVariableOp", "op": "Const", "attr": {"value": {"tensor": {"dtype": "DT_FLOAT", "tensorShape": {"dim": [{"size": "100"}, {"size": "400"}]}}}, "dtype": {"type": "DT_FLOAT"}}}, {"name": "StatefulPartitionedCall/sequential_1/bidirectional_2/forward_lstm_2/Read_2/ReadVariableOp", "op": "Const", "attr": {"value": {"tensor": {"dtype": "DT_FLOAT", "tensorShape": {"dim": [{"size": "400"}]}}}, "dtype": {"type": "DT_FLOAT"}}}, {"name": "StatefulPartitionedCall/sequential_1/bidirectional_2/forward_lstm_2/PartitionedCall/time", "op": "Const", "attr": {"value": {"tensor": {"dtype": "DT_INT32", "tensorShape": {}}}, "dtype": {"type": "DT_INT32"}}}, {"name": "StatefulPartitionedCall/sequential_1/bidirectional_2/forward_lstm_2/PartitionedCall/transpose/perm", "op": "Const", "attr": {"dtype": {"type": "DT_INT32"}, "value": {"tensor": {"dtype": "DT_INT32", "tensorShape": {"dim": [{"size": "3"}]}}}}}, {"name": "StatefulPartitionedCall/sequential_1/bidirectional_2/forward_lstm_2/PartitionedCall/strided_slice/stack", "op": "Const", "attr": {"value": {"tensor": {"dtype": "DT_INT32", "tensorShape": {"dim": [{"size": "1"}]}}}, "dtype": {"type": "DT_INT32"}}}, {"name": "StatefulPartitionedCall/sequential_1/bidirectional_2/forward_lstm_2/PartitionedCall/strided_slice/stack_1", "op": "Const", "attr": {"dtype": {"type": "DT_INT32"}, "value": {"tensor": {"dtype": "DT_INT32", "tensorShape": {"dim": [{"size": "1"}]}}}}}, {"name": "StatefulPartitionedCall/sequential_1/bidirectional_2/forward_lstm_2/PartitionedCall/strided_slice/stack_2", "op": "Const", "attr": {"dtype": {"type": "DT_INT32"}, "value": {"tensor": {"dtype": "DT_INT32", "tensorShape": {"dim": [{"size": "1"}]}}}}}, {"name": "StatefulPartitionedCall/sequential_1/bidirectional_2/forward_lstm_2/PartitionedCall/while/loop_counter", "op": "Const", "attr": {"dtype": {"type": "DT_INT32"}, "value": {"tensor": {"dtype": "DT_INT32", "tensorShape": {}}}}}, {"name": "StatefulPartitionedCall/sequential_1/bidirectional_2/forward_lstm_2/PartitionedCall/TensorArrayV2Stack/TensorListStack/element_shape", "op": "Const", "attr": {"dtype": {"type": "DT_INT32"}, "value": {"tensor": {"dtype": "DT_INT32", "tensorShape": {"dim": [{"size": "2"}]}}}}}, {"name": "StatefulPartitionedCall/sequential_1/bidirectional_2/forward_lstm_2/PartitionedCall/transpose_1/perm", "op": "Const", "attr": {"dtype": {"type": "DT_INT32"}, "value": {"tensor": {"dtype": "DT_INT32", "tensorShape": {"dim": [{"size": "3"}]}}}}}, {"name": "StatefulPartitionedCall/sequential_1/bidirectional_2/backward_lstm_2/PartitionedCall/TensorArrayV2_1/element_shape", "op": "Const", "attr": {"dtype": {"type": "DT_INT32"}, "value": {"tensor": {"dtype": "DT_INT32", "tensorShape": {"dim": [{"size": "2"}]}}}}}, {"name": "StatefulPartitionedCall/sequential_1/bidirectional_2/backward_lstm_2/zeros_1/packed/1", "op": "Const", "attr": {"value": {"tensor": {"dtype": "DT_INT32", "tensorShape": {}}}, "dtype": {"type": "DT_INT32"}}}, {"name": "StatefulPartitionedCall/sequential_1/bidirectional_2/backward_lstm_2/zeros_1/Const", "op": "Const", "attr": {"dtype": {"type": "DT_FLOAT"}, "value": {"tensor": {"dtype": "DT_FLOAT", "tensorShape": {}}}}}, {"name": "StatefulPartitionedCall/sequential_1/bidirectional_2/backward_lstm_2/PartitionedCall/ReverseV2/axis", "op": "Const", "attr": {"dtype": {"type": "DT_INT32"}, "value": {"tensor": {"dtype": "DT_INT32", "tensorShape": {"dim": [{"size": "1"}]}}}}}, {"name": "StatefulPartitionedCall/sequential_1/bidirectional_2/backward_lstm_2/PartitionedCall/TensorArrayUnstack/TensorListFromTensor/element_shape", "op": "Const", "attr": {"dtype": {"type": "DT_INT32"}, "value": {"tensor": {"dtype": "DT_INT32", "tensorShape": {"dim": [{"size": "2"}]}}}}}, {"name": "StatefulPartitionedCall/sequential_1/bidirectional_2/backward_lstm_2/Read/ReadVariableOp", "op": "Const", "attr": {"value": {"tensor": {"dtype": "DT_FLOAT", "tensorShape": {"dim": [{"size": "100"}, {"size": "400"}]}}}, "dtype": {"type": "DT_FLOAT"}}}, {"name": "StatefulPartitionedCall/sequential_1/bidirectional_2/backward_lstm_2/strided_slice/stack", "op": "Const", "attr": {"dtype": {"type": "DT_INT32"}, "value": {"tensor": {"dtype": "DT_INT32", "tensorShape": {"dim": [{"size": "1"}]}}}}}, {"name": "StatefulPartitionedCall/sequential_1/bidirectional_2/backward_lstm_2/strided_slice/stack_1", "op": "Const", "attr": {"value": {"tensor": {"dtype": "DT_INT32", "tensorShape": {"dim": [{"size": "1"}]}}}, "dtype": {"type": "DT_INT32"}}}, {"name": "StatefulPartitionedCall/sequential_1/bidirectional_2/backward_lstm_2/strided_slice/stack_2", "op": "Const", "attr": {"value": {"tensor": {"dtype": "DT_INT32", "tensorShape": {"dim": [{"size": "1"}]}}}, "dtype": {"type": "DT_INT32"}}}, {"name": "StatefulPartitionedCall/sequential_1/bidirectional_2/backward_lstm_2/zeros/packed/1", "op": "Const", "attr": {"dtype": {"type": "DT_INT32"}, "value": {"tensor": {"dtype": "DT_INT32", "tensorShape": {}}}}}, {"name": "StatefulPartitionedCall/sequential_1/bidirectional_2/backward_lstm_2/zeros/Const", "op": "Const", "attr": {"value": {"tensor": {"dtype": "DT_FLOAT", "tensorShape": {}}}, "dtype": {"type": "DT_FLOAT"}}}, {"name": "StatefulPartitionedCall/sequential_1/bidirectional_2/backward_lstm_2/Read_1/ReadVariableOp", "op": "Const", "attr": {"dtype": {"type": "DT_FLOAT"}, "value": {"tensor": {"dtype": "DT_FLOAT", "tensorShape": {"dim": [{"size": "100"}, {"size": "400"}]}}}}}, {"name": "StatefulPartitionedCall/sequential_1/bidirectional_2/backward_lstm_2/Read_2/ReadVariableOp", "op": "Const", "attr": {"value": {"tensor": {"dtype": "DT_FLOAT", "tensorShape": {"dim": [{"size": "400"}]}}}, "dtype": {"type": "DT_FLOAT"}}}, {"name": "StatefulPartitionedCall/sequential_1/bidirectional_2/backward_lstm_2/PartitionedCall/time", "op": "Const", "attr": {"value": {"tensor": {"dtype": "DT_INT32", "tensorShape": {}}}, "dtype": {"type": "DT_INT32"}}}, {"name": "StatefulPartitionedCall/sequential_1/bidirectional_2/backward_lstm_2/PartitionedCall/transpose/perm", "op": "Const", "attr": {"value": {"tensor": {"dtype": "DT_INT32", "tensorShape": {"dim": [{"size": "3"}]}}}, "dtype": {"type": "DT_INT32"}}}, {"name": "StatefulPartitionedCall/sequential_1/bidirectional_2/backward_lstm_2/PartitionedCall/strided_slice/stack", "op": "Const", "attr": {"value": {"tensor": {"dtype": "DT_INT32", "tensorShape": {"dim": [{"size": "1"}]}}}, "dtype": {"type": "DT_INT32"}}}, {"name": "StatefulPartitionedCall/sequential_1/bidirectional_2/backward_lstm_2/PartitionedCall/strided_slice/stack_1", "op": "Const", "attr": {"dtype": {"type": "DT_INT32"}, "value": {"tensor": {"dtype": "DT_INT32", "tensorShape": {"dim": [{"size": "1"}]}}}}}, {"name": "StatefulPartitionedCall/sequential_1/bidirectional_2/backward_lstm_2/PartitionedCall/strided_slice/stack_2", "op": "Const", "attr": {"dtype": {"type": "DT_INT32"}, "value": {"tensor": {"dtype": "DT_INT32", "tensorShape": {"dim": [{"size": "1"}]}}}}}, {"name": "StatefulPartitionedCall/sequential_1/bidirectional_2/backward_lstm_2/PartitionedCall/while/loop_counter", "op": "Const", "attr": {"dtype": {"type": "DT_INT32"}, "value": {"tensor": {"dtype": "DT_INT32", "tensorShape": {}}}}}, {"name": "StatefulPartitionedCall/sequential_1/bidirectional_2/backward_lstm_2/PartitionedCall/TensorArrayV2Stack/TensorListStack/element_shape", "op": "Const", "attr": {"value": {"tensor": {"dtype": "DT_INT32", "tensorShape": {"dim": [{"size": "2"}]}}}, "dtype": {"type": "DT_INT32"}}}, {"name": "StatefulPartitionedCall/sequential_1/bidirectional_2/backward_lstm_2/PartitionedCall/transpose_1/perm", "op": "Const", "attr": {"dtype": {"type": "DT_INT32"}, "value": {"tensor": {"dtype": "DT_INT32", "tensorShape": {"dim": [{"size": "3"}]}}}}}, {"name": "StatefulPartitionedCall/sequential_1/bidirectional_2/ReverseV2/axis", "op": "Const", "attr": {"dtype": {"type": "DT_INT32"}, "value": {"tensor": {"dtype": "DT_INT32", "tensorShape": {"dim": [{"size": "1"}]}}}}}, {"name": "StatefulPartitionedCall/sequential_1/bidirectional_2/concat/axis", "op": "Const", "attr": {"dtype": {"type": "DT_INT32"}, "value": {"tensor": {"dtype": "DT_INT32", "tensorShape": {}}}}}, {"name": "StatefulPartitionedCall/sequential_1/bidirectional_3/backward_lstm_3/PartitionedCall/transpose/perm", "op": "Const", "attr": {"dtype": {"type": "DT_INT32"}, "value": {"tensor": {"dtype": "DT_INT32", "tensorShape": {"dim": [{"size": "3"}]}}}}}, {"name": "StatefulPartitionedCall/sequential_1/bidirectional_3/backward_lstm_3/PartitionedCall/strided_slice/stack", "op": "Const", "attr": {"dtype": {"type": "DT_INT32"}, "value": {"tensor": {"dtype": "DT_INT32", "tensorShape": {"dim": [{"size": "1"}]}}}}}, {"name": "StatefulPartitionedCall/sequential_1/bidirectional_3/backward_lstm_3/PartitionedCall/strided_slice/stack_1", "op": "Const", "attr": {"dtype": {"type": "DT_INT32"}, "value": {"tensor": {"dtype": "DT_INT32", "tensorShape": {"dim": [{"size": "1"}]}}}}}, {"name": "StatefulPartitionedCall/sequential_1/bidirectional_3/backward_lstm_3/PartitionedCall/strided_slice/stack_2", "op": "Const", "attr": {"dtype": {"type": "DT_INT32"}, "value": {"tensor": {"dtype": "DT_INT32", "tensorShape": {"dim": [{"size": "1"}]}}}}}, {"name": "StatefulPartitionedCall/sequential_1/bidirectional_3/backward_lstm_3/PartitionedCall/while/loop_counter", "op": "Const", "attr": {"dtype": {"type": "DT_INT32"}, "value": {"tensor": {"dtype": "DT_INT32", "tensorShape": {}}}}}, {"name": "StatefulPartitionedCall/sequential_1/bidirectional_3/backward_lstm_3/PartitionedCall/TensorArrayV2Stack/TensorListStack/element_shape", "op": "Const", "attr": {"dtype": {"type": "DT_INT32"}, "value": {"tensor": {"dtype": "DT_INT32", "tensorShape": {"dim": [{"size": "2"}]}}}}}, {"name": "StatefulPartitionedCall/sequential_1/bidirectional_3/backward_lstm_3/PartitionedCall/strided_slice_2/stack", "op": "Const", "attr": {"dtype": {"type": "DT_INT32"}, "value": {"tensor": {"dtype": "DT_INT32", "tensorShape": {"dim": [{"size": "1"}]}}}}}, {"name": "StatefulPartitionedCall/sequential_1/bidirectional_3/backward_lstm_3/PartitionedCall/strided_slice_2/stack_1", "op": "Const", "attr": {"value": {"tensor": {"dtype": "DT_INT32", "tensorShape": {"dim": [{"size": "1"}]}}}, "dtype": {"type": "DT_INT32"}}}, {"name": "StatefulPartitionedCall/sequential_1/bidirectional_3/backward_lstm_3/PartitionedCall/strided_slice_2/stack_2", "op": "Const", "attr": {"value": {"tensor": {"dtype": "DT_INT32", "tensorShape": {"dim": [{"size": "1"}]}}}, "dtype": {"type": "DT_INT32"}}}, {"name": "StatefulPartitionedCall/sequential_1/bidirectional_3/concat/axis", "op": "Const", "attr": {"value": {"tensor": {"dtype": "DT_INT32", "tensorShape": {}}}, "dtype": {"type": "DT_INT32"}}}, {"name": "StatefulPartitionedCall/sequential_1/dense_1/MatMul/ReadVariableOp", "op": "Const", "attr": {"value": {"tensor": {"dtype": "DT_FLOAT", "tensorShape": {"dim": [{"size": "200"}, {"size": "50000"}]}}}, "dtype": {"type": "DT_FLOAT"}}}, {"name": "StatefulPartitionedCall/sequential_1/dense_1/BiasAdd/ReadVariableOp", "op": "Const", "attr": {"value": {"tensor": {"dtype": "DT_FLOAT", "tensorShape": {"dim": [{"size": "50000"}]}}}, "dtype": {"type": "DT_FLOAT"}}}, {"name": "unknown", "op": "Const", "attr": {"value": {"tensor": {"dtype": "DT_FLOAT", "tensorShape": {"dim": [{"size": "50000"}, {"size": "100"}]}}}, "dtype": {"type": "DT_FLOAT"}}}, {"name": "StatefulPartitionedCall/sequential_1/embedding_1/embedding_lookup/axis", "op": "Const", "attr": {"value": {"tensor": {"dtype": "DT_INT32", "tensorShape": {}}}, "dtype": {"type": "DT_INT32"}}}, {"name": "embedding_1_input", "op": "Placeholder", "attr": {"shape": {"shape": {"dim": [{"size": "-1"}, {"size": "4"}]}}, "dtype": {"type": "DT_FLOAT"}}}, {"name": "StatefulPartitionedCall/sequential_1/bidirectional_3/forward_lstm_3/PartitionedCall/while/enter/_192", "op": "Enter", "input": ["StatefulPartitionedCall/sequential_1/bidirectional_3/forward_lstm_3/Read/ReadVariableOp"], "attr": {"T": {"type": "DT_FLOAT"}, "frame_name": {"s": "U3RhdGVmdWxQYXJ0aXRpb25lZENhbGwvc2VxdWVudGlhbF8xL2JpZGlyZWN0aW9uYWxfMy9mb3J3YXJkX2xzdG1fMy9QYXJ0aXRpb25lZENhbGwvd2hpbGU="}, "is_constant": {"b": false}, "parallel_iterations": {"i": "32"}}}, {"name": "StatefulPartitionedCall/sequential_1/bidirectional_3/forward_lstm_3/PartitionedCall/while/enter/_193", "op": "Enter", "input": ["StatefulPartitionedCall/sequential_1/bidirectional_3/forward_lstm_3/Read_1/ReadVariableOp"], "attr": {"is_constant": {"b": false}, "frame_name": {"s": "U3RhdGVmdWxQYXJ0aXRpb25lZENhbGwvc2VxdWVudGlhbF8xL2JpZGlyZWN0aW9uYWxfMy9mb3J3YXJkX2xzdG1fMy9QYXJ0aXRpb25lZENhbGwvd2hpbGU="}, "T": {"type": "DT_FLOAT"}, "parallel_iterations": {"i": "32"}}}, {"name": "StatefulPartitionedCall/sequential_1/bidirectional_3/forward_lstm_3/PartitionedCall/while/enter/_194", "op": "Enter", "input": ["StatefulPartitionedCall/sequential_1/bidirectional_3/forward_lstm_3/Read_2/ReadVariableOp"], "attr": {"frame_name": {"s": "U3RhdGVmdWxQYXJ0aXRpb25lZENhbGwvc2VxdWVudGlhbF8xL2JpZGlyZWN0aW9uYWxfMy9mb3J3YXJkX2xzdG1fMy9QYXJ0aXRpb25lZENhbGwvd2hpbGU="}, "parallel_iterations": {"i": "32"}, "is_constant": {"b": false}, "T": {"type": "DT_FLOAT"}}}, {"name": "StatefulPartitionedCall/sequential_1/bidirectional_3/forward_lstm_3/PartitionedCall/while/enter/_186", "op": "Enter", "input": ["StatefulPartitionedCall/sequential_1/bidirectional_3/forward_lstm_3/PartitionedCall/time"], "attr": {"T": {"type": "DT_INT32"}, "frame_name": {"s": "U3RhdGVmdWxQYXJ0aXRpb25lZENhbGwvc2VxdWVudGlhbF8xL2JpZGlyZWN0aW9uYWxfMy9mb3J3YXJkX2xzdG1fMy9QYXJ0aXRpb25lZENhbGwvd2hpbGU="}, "is_constant": {"b": false}, "parallel_iterations": {"i": "32"}}}, {"name": "StatefulPartitionedCall/sequential_1/bidirectional_3/forward_lstm_3/PartitionedCall/while/enter/_184", "op": "Enter", "input": ["StatefulPartitionedCall/sequential_1/bidirectional_3/forward_lstm_3/PartitionedCall/while/loop_counter"], "attr": {"parallel_iterations": {"i": "32"}, "T": {"type": "DT_INT32"}, "frame_name": {"s": "U3RhdGVmdWxQYXJ0aXRpb25lZENhbGwvc2VxdWVudGlhbF8xL2JpZGlyZWN0aW9uYWxfMy9mb3J3YXJkX2xzdG1fMy9QYXJ0aXRpb25lZENhbGwvd2hpbGU="}, "is_constant": {"b": false}}}, {"name": "StatefulPartitionedCall/sequential_1/bidirectional_3/backward_lstm_3/PartitionedCall/while/enter/_252", "op": "Enter", "input": ["StatefulPartitionedCall/sequential_1/bidirectional_3/backward_lstm_3/Read/ReadVariableOp"], "attr": {"T": {"type": "DT_FLOAT"}, "is_constant": {"b": false}, "frame_name": {"s": "U3RhdGVmdWxQYXJ0aXRpb25lZENhbGwvc2VxdWVudGlhbF8xL2JpZGlyZWN0aW9uYWxfMy9iYWNrd2FyZF9sc3RtXzMvUGFydGl0aW9uZWRDYWxsL3doaWxl"}, "parallel_iterations": {"i": "32"}}}, {"name": "StatefulPartitionedCall/sequential_1/bidirectional_3/backward_lstm_3/PartitionedCall/while/enter/_253", "op": "Enter", "input": ["StatefulPartitionedCall/sequential_1/bidirectional_3/backward_lstm_3/Read_1/ReadVariableOp"], "attr": {"T": {"type": "DT_FLOAT"}, "parallel_iterations": {"i": "32"}, "is_constant": {"b": false}, "frame_name": {"s": "U3RhdGVmdWxQYXJ0aXRpb25lZENhbGwvc2VxdWVudGlhbF8xL2JpZGlyZWN0aW9uYWxfMy9iYWNrd2FyZF9sc3RtXzMvUGFydGl0aW9uZWRDYWxsL3doaWxl"}}}, {"name": "StatefulPartitionedCall/sequential_1/bidirectional_3/backward_lstm_3/PartitionedCall/while/enter/_254", "op": "Enter", "input": ["StatefulPartitionedCall/sequential_1/bidirectional_3/backward_lstm_3/Read_2/ReadVariableOp"], "attr": {"frame_name": {"s": "U3RhdGVmdWxQYXJ0aXRpb25lZENhbGwvc2VxdWVudGlhbF8xL2JpZGlyZWN0aW9uYWxfMy9iYWNrd2FyZF9sc3RtXzMvUGFydGl0aW9uZWRDYWxsL3doaWxl"}, "T": {"type": "DT_FLOAT"}, "is_constant": {"b": false}, "parallel_iterations": {"i": "32"}}}, {"name": "StatefulPartitionedCall/sequential_1/bidirectional_3/backward_lstm_3/PartitionedCall/while/enter/_246", "op": "Enter", "input": ["StatefulPartitionedCall/sequential_1/bidirectional_3/backward_lstm_3/PartitionedCall/time"], "attr": {"T": {"type": "DT_INT32"}, "parallel_iterations": {"i": "32"}, "is_constant": {"b": false}, "frame_name": {"s": "U3RhdGVmdWxQYXJ0aXRpb25lZENhbGwvc2VxdWVudGlhbF8xL2JpZGlyZWN0aW9uYWxfMy9iYWNrd2FyZF9sc3RtXzMvUGFydGl0aW9uZWRDYWxsL3doaWxl"}}}, {"name": "StatefulPartitionedCall/sequential_1/bidirectional_2/forward_lstm_2/PartitionedCall/while/enter/_72", "op": "Enter", "input": ["StatefulPartitionedCall/sequential_1/bidirectional_2/forward_lstm_2/Read/ReadVariableOp"], "attr": {"is_constant": {"b": false}, "parallel_iterations": {"i": "32"}, "frame_name": {"s": "U3RhdGVmdWxQYXJ0aXRpb25lZENhbGwvc2VxdWVudGlhbF8xL2JpZGlyZWN0aW9uYWxfMi9mb3J3YXJkX2xzdG1fMi9QYXJ0aXRpb25lZENhbGwvd2hpbGU="}, "T": {"type": "DT_FLOAT"}}}, {"name": "StatefulPartitionedCall/sequential_1/bidirectional_2/forward_lstm_2/PartitionedCall/while/enter/_73", "op": "Enter", "input": ["StatefulPartitionedCall/sequential_1/bidirectional_2/forward_lstm_2/Read_1/ReadVariableOp"], "attr": {"T": {"type": "DT_FLOAT"}, "frame_name": {"s": "U3RhdGVmdWxQYXJ0aXRpb25lZENhbGwvc2VxdWVudGlhbF8xL2JpZGlyZWN0aW9uYWxfMi9mb3J3YXJkX2xzdG1fMi9QYXJ0aXRpb25lZENhbGwvd2hpbGU="}, "is_constant": {"b": false}, "parallel_iterations": {"i": "32"}}}, {"name": "StatefulPartitionedCall/sequential_1/bidirectional_2/forward_lstm_2/PartitionedCall/while/enter/_74", "op": "Enter", "input": ["StatefulPartitionedCall/sequential_1/bidirectional_2/forward_lstm_2/Read_2/ReadVariableOp"], "attr": {"T": {"type": "DT_FLOAT"}, "is_constant": {"b": false}, "frame_name": {"s": "U3RhdGVmdWxQYXJ0aXRpb25lZENhbGwvc2VxdWVudGlhbF8xL2JpZGlyZWN0aW9uYWxfMi9mb3J3YXJkX2xzdG1fMi9QYXJ0aXRpb25lZENhbGwvd2hpbGU="}, "parallel_iterations": {"i": "32"}}}, {"name": "StatefulPartitionedCall/sequential_1/bidirectional_2/forward_lstm_2/PartitionedCall/while/enter/_66", "op": "Enter", "input": ["StatefulPartitionedCall/sequential_1/bidirectional_2/forward_lstm_2/PartitionedCall/time"], "attr": {"T": {"type": "DT_INT32"}, "parallel_iterations": {"i": "32"}, "is_constant": {"b": false}, "frame_name": {"s": "U3RhdGVmdWxQYXJ0aXRpb25lZENhbGwvc2VxdWVudGlhbF8xL2JpZGlyZWN0aW9uYWxfMi9mb3J3YXJkX2xzdG1fMi9QYXJ0aXRpb25lZENhbGwvd2hpbGU="}}}, {"name": "StatefulPartitionedCall/sequential_1/bidirectional_2/forward_lstm_2/PartitionedCall/while/enter/_64", "op": "Enter", "input": ["StatefulPartitionedCall/sequential_1/bidirectional_2/forward_lstm_2/PartitionedCall/while/loop_counter"], "attr": {"is_constant": {"b": false}, "frame_name": {"s": "U3RhdGVmdWxQYXJ0aXRpb25lZENhbGwvc2VxdWVudGlhbF8xL2JpZGlyZWN0aW9uYWxfMi9mb3J3YXJkX2xzdG1fMi9QYXJ0aXRpb25lZENhbGwvd2hpbGU="}, "T": {"type": "DT_INT32"}, "parallel_iterations": {"i": "32"}}}, {"name": "StatefulPartitionedCall/sequential_1/bidirectional_2/backward_lstm_2/PartitionedCall/while/enter/_132", "op": "Enter", "input": ["StatefulPartitionedCall/sequential_1/bidirectional_2/backward_lstm_2/Read/ReadVariableOp"], "attr": {"frame_name": {"s": "U3RhdGVmdWxQYXJ0aXRpb25lZENhbGwvc2VxdWVudGlhbF8xL2JpZGlyZWN0aW9uYWxfMi9iYWNrd2FyZF9sc3RtXzIvUGFydGl0aW9uZWRDYWxsL3doaWxl"}, "is_constant": {"b": false}, "parallel_iterations": {"i": "32"}, "T": {"type": "DT_FLOAT"}}}, {"name": "StatefulPartitionedCall/sequential_1/bidirectional_2/backward_lstm_2/PartitionedCall/while/enter/_133", "op": "Enter", "input": ["StatefulPartitionedCall/sequential_1/bidirectional_2/backward_lstm_2/Read_1/ReadVariableOp"], "attr": {"frame_name": {"s": "U3RhdGVmdWxQYXJ0aXRpb25lZENhbGwvc2VxdWVudGlhbF8xL2JpZGlyZWN0aW9uYWxfMi9iYWNrd2FyZF9sc3RtXzIvUGFydGl0aW9uZWRDYWxsL3doaWxl"}, "parallel_iterations": {"i": "32"}, "T": {"type": "DT_FLOAT"}, "is_constant": {"b": false}}}, {"name": "StatefulPartitionedCall/sequential_1/bidirectional_2/backward_lstm_2/PartitionedCall/while/enter/_134", "op": "Enter", "input": ["StatefulPartitionedCall/sequential_1/bidirectional_2/backward_lstm_2/Read_2/ReadVariableOp"], "attr": {"T": {"type": "DT_FLOAT"}, "frame_name": {"s": "U3RhdGVmdWxQYXJ0aXRpb25lZENhbGwvc2VxdWVudGlhbF8xL2JpZGlyZWN0aW9uYWxfMi9iYWNrd2FyZF9sc3RtXzIvUGFydGl0aW9uZWRDYWxsL3doaWxl"}, "is_constant": {"b": false}, "parallel_iterations": {"i": "32"}}}, {"name": "StatefulPartitionedCall/sequential_1/bidirectional_2/backward_lstm_2/PartitionedCall/while/enter/_126", "op": "Enter", "input": ["StatefulPartitionedCall/sequential_1/bidirectional_2/backward_lstm_2/PartitionedCall/time"], "attr": {"T": {"type": "DT_INT32"}, "parallel_iterations": {"i": "32"}, "is_constant": {"b": false}, "frame_name": {"s": "U3RhdGVmdWxQYXJ0aXRpb25lZENhbGwvc2VxdWVudGlhbF8xL2JpZGlyZWN0aW9uYWxfMi9iYWNrd2FyZF9sc3RtXzIvUGFydGl0aW9uZWRDYWxsL3doaWxl"}}}, {"name": "StatefulPartitionedCall/sequential_1/bidirectional_2/backward_lstm_2/PartitionedCall/while/enter/_124", "op": "Enter", "input": ["StatefulPartitionedCall/sequential_1/bidirectional_2/backward_lstm_2/PartitionedCall/while/loop_counter"], "attr": {"frame_name": {"s": "U3RhdGVmdWxQYXJ0aXRpb25lZENhbGwvc2VxdWVudGlhbF8xL2JpZGlyZWN0aW9uYWxfMi9iYWNrd2FyZF9sc3RtXzIvUGFydGl0aW9uZWRDYWxsL3doaWxl"}, "parallel_iterations": {"i": "32"}, "is_constant": {"b": false}, "T": {"type": "DT_INT32"}}}, {"name": "StatefulPartitionedCall/sequential_1/bidirectional_3/backward_lstm_3/PartitionedCall/while/enter/_244", "op": "Enter", "input": ["StatefulPartitionedCall/sequential_1/bidirectional_3/backward_lstm_3/PartitionedCall/while/loop_counter"], "attr": {"is_constant": {"b": false}, "T": {"type": "DT_INT32"}, "frame_name": {"s": "U3RhdGVmdWxQYXJ0aXRpb25lZENhbGwvc2VxdWVudGlhbF8xL2JpZGlyZWN0aW9uYWxfMy9iYWNrd2FyZF9sc3RtXzMvUGFydGl0aW9uZWRDYWxsL3doaWxl"}, "parallel_iterations": {"i": "32"}}}, {"name": "StatefulPartitionedCall/sequential_1/embedding_1/Cast", "op": "Cast", "input": ["embedding_1_input"], "attr": {"Truncate": {"b": false}, "SrcT": {"type": "DT_FLOAT"}, "DstT": {"type": "DT_INT32"}}}, {"name": "StatefulPartitionedCall/sequential_1/bidirectional_3/forward_lstm_3/PartitionedCall/while/merge/_203", "op": "Merge", "input": ["StatefulPartitionedCall/sequential_1/bidirectional_3/forward_lstm_3/PartitionedCall/while/enter/_192", "StatefulPartitionedCall/sequential_1/bidirectional_3/forward_lstm_3/PartitionedCall/while/next_iteration/_239"], "attr": {"T": {"type": "DT_FLOAT"}, "N": {"i": "2"}}}, {"name": "StatefulPartitionedCall/sequential_1/bidirectional_3/forward_lstm_3/PartitionedCall/while/merge/_204", "op": "Merge", "input": ["StatefulPartitionedCall/sequential_1/bidirectional_3/forward_lstm_3/PartitionedCall/while/enter/_193", "StatefulPartitionedCall/sequential_1/bidirectional_3/forward_lstm_3/PartitionedCall/while/next_iteration/_240"], "attr": {"N": {"i": "2"}, "T": {"type": "DT_FLOAT"}}}, {"name": "StatefulPartitionedCall/sequential_1/bidirectional_3/forward_lstm_3/PartitionedCall/while/merge/_205", "op": "Merge", "input": ["StatefulPartitionedCall/sequential_1/bidirectional_3/forward_lstm_3/PartitionedCall/while/enter/_194", "StatefulPartitionedCall/sequential_1/bidirectional_3/forward_lstm_3/PartitionedCall/while/next_iteration/_241"], "attr": {"T": {"type": "DT_FLOAT"}, "N": {"i": "2"}}}, {"name": "StatefulPartitionedCall/sequential_1/bidirectional_3/forward_lstm_3/PartitionedCall/while/merge/_197", "op": "Merge", "input": ["StatefulPartitionedCall/sequential_1/bidirectional_3/forward_lstm_3/PartitionedCall/while/enter/_186", "StatefulPartitionedCall/sequential_1/bidirectional_3/forward_lstm_3/PartitionedCall/while/next_iteration/_233"], "attr": {"N": {"i": "2"}, "T": {"type": "DT_INT32"}}}, {"name": "StatefulPartitionedCall/sequential_1/bidirectional_3/forward_lstm_3/PartitionedCall/while/merge/_195", "op": "Merge", "input": ["StatefulPartitionedCall/sequential_1/bidirectional_3/forward_lstm_3/PartitionedCall/while/enter/_184", "StatefulPartitionedCall/sequential_1/bidirectional_3/forward_lstm_3/PartitionedCall/while/next_iteration/_231"], "attr": {"N": {"i": "2"}, "T": {"type": "DT_INT32"}}}, {"name": "StatefulPartitionedCall/sequential_1/bidirectional_3/backward_lstm_3/PartitionedCall/while/merge/_263", "op": "Merge", "input": ["StatefulPartitionedCall/sequential_1/bidirectional_3/backward_lstm_3/PartitionedCall/while/enter/_252", "StatefulPartitionedCall/sequential_1/bidirectional_3/backward_lstm_3/PartitionedCall/while/next_iteration/_299"], "attr": {"T": {"type": "DT_FLOAT"}, "N": {"i": "2"}}}, {"name": "StatefulPartitionedCall/sequential_1/bidirectional_3/backward_lstm_3/PartitionedCall/while/merge/_264", "op": "Merge", "input": ["StatefulPartitionedCall/sequential_1/bidirectional_3/backward_lstm_3/PartitionedCall/while/enter/_253", "StatefulPartitionedCall/sequential_1/bidirectional_3/backward_lstm_3/PartitionedCall/while/next_iteration/_300"], "attr": {"N": {"i": "2"}, "T": {"type": "DT_FLOAT"}}}, {"name": "StatefulPartitionedCall/sequential_1/bidirectional_3/backward_lstm_3/PartitionedCall/while/merge/_265", "op": "Merge", "input": ["StatefulPartitionedCall/sequential_1/bidirectional_3/backward_lstm_3/PartitionedCall/while/enter/_254", "StatefulPartitionedCall/sequential_1/bidirectional_3/backward_lstm_3/PartitionedCall/while/next_iteration/_301"], "attr": {"N": {"i": "2"}, "T": {"type": "DT_FLOAT"}}}, {"name": "StatefulPartitionedCall/sequential_1/bidirectional_3/backward_lstm_3/PartitionedCall/while/merge/_257", "op": "Merge", "input": ["StatefulPartitionedCall/sequential_1/bidirectional_3/backward_lstm_3/PartitionedCall/while/enter/_246", "StatefulPartitionedCall/sequential_1/bidirectional_3/backward_lstm_3/PartitionedCall/while/next_iteration/_293"], "attr": {"N": {"i": "2"}, "T": {"type": "DT_INT32"}}}, {"name": "StatefulPartitionedCall/sequential_1/bidirectional_2/forward_lstm_2/PartitionedCall/while/merge/_83", "op": "Merge", "input": ["StatefulPartitionedCall/sequential_1/bidirectional_2/forward_lstm_2/PartitionedCall/while/enter/_72", "StatefulPartitionedCall/sequential_1/bidirectional_2/forward_lstm_2/PartitionedCall/while/next_iteration/_119"], "attr": {"T": {"type": "DT_FLOAT"}, "N": {"i": "2"}}}, {"name": "StatefulPartitionedCall/sequential_1/bidirectional_2/forward_lstm_2/PartitionedCall/while/merge/_84", "op": "Merge", "input": ["StatefulPartitionedCall/sequential_1/bidirectional_2/forward_lstm_2/PartitionedCall/while/enter/_73", "StatefulPartitionedCall/sequential_1/bidirectional_2/forward_lstm_2/PartitionedCall/while/next_iteration/_120"], "attr": {"T": {"type": "DT_FLOAT"}, "N": {"i": "2"}}}, {"name": "StatefulPartitionedCall/sequential_1/bidirectional_2/forward_lstm_2/PartitionedCall/while/merge/_85", "op": "Merge", "input": ["StatefulPartitionedCall/sequential_1/bidirectional_2/forward_lstm_2/PartitionedCall/while/enter/_74", "StatefulPartitionedCall/sequential_1/bidirectional_2/forward_lstm_2/PartitionedCall/while/next_iteration/_121"], "attr": {"T": {"type": "DT_FLOAT"}, "N": {"i": "2"}}}, {"name": "StatefulPartitionedCall/sequential_1/bidirectional_2/forward_lstm_2/PartitionedCall/while/merge/_77", "op": "Merge", "input": ["StatefulPartitionedCall/sequential_1/bidirectional_2/forward_lstm_2/PartitionedCall/while/enter/_66", "StatefulPartitionedCall/sequential_1/bidirectional_2/forward_lstm_2/PartitionedCall/while/next_iteration/_113"], "attr": {"N": {"i": "2"}, "T": {"type": "DT_INT32"}}}, {"name": "StatefulPartitionedCall/sequential_1/bidirectional_2/forward_lstm_2/PartitionedCall/while/merge/_75", "op": "Merge", "input": ["StatefulPartitionedCall/sequential_1/bidirectional_2/forward_lstm_2/PartitionedCall/while/enter/_64", "StatefulPartitionedCall/sequential_1/bidirectional_2/forward_lstm_2/PartitionedCall/while/next_iteration/_111"], "attr": {"T": {"type": "DT_INT32"}, "N": {"i": "2"}}}, {"name": "StatefulPartitionedCall/sequential_1/bidirectional_2/backward_lstm_2/PartitionedCall/while/merge/_143", "op": "Merge", "input": ["StatefulPartitionedCall/sequential_1/bidirectional_2/backward_lstm_2/PartitionedCall/while/enter/_132", "StatefulPartitionedCall/sequential_1/bidirectional_2/backward_lstm_2/PartitionedCall/while/next_iteration/_179"], "attr": {"T": {"type": "DT_FLOAT"}, "N": {"i": "2"}}}, {"name": "StatefulPartitionedCall/sequential_1/bidirectional_2/backward_lstm_2/PartitionedCall/while/merge/_144", "op": "Merge", "input": ["StatefulPartitionedCall/sequential_1/bidirectional_2/backward_lstm_2/PartitionedCall/while/enter/_133", "StatefulPartitionedCall/sequential_1/bidirectional_2/backward_lstm_2/PartitionedCall/while/next_iteration/_180"], "attr": {"N": {"i": "2"}, "T": {"type": "DT_FLOAT"}}}, {"name": "StatefulPartitionedCall/sequential_1/bidirectional_2/backward_lstm_2/PartitionedCall/while/merge/_145", "op": "Merge", "input": ["StatefulPartitionedCall/sequential_1/bidirectional_2/backward_lstm_2/PartitionedCall/while/enter/_134", "StatefulPartitionedCall/sequential_1/bidirectional_2/backward_lstm_2/PartitionedCall/while/next_iteration/_181"], "attr": {"N": {"i": "2"}, "T": {"type": "DT_FLOAT"}}}, {"name": "StatefulPartitionedCall/sequential_1/bidirectional_2/backward_lstm_2/PartitionedCall/while/merge/_137", "op": "Merge", "input": ["StatefulPartitionedCall/sequential_1/bidirectional_2/backward_lstm_2/PartitionedCall/while/enter/_126", "StatefulPartitionedCall/sequential_1/bidirectional_2/backward_lstm_2/PartitionedCall/while/next_iteration/_173"], "attr": {"T": {"type": "DT_INT32"}, "N": {"i": "2"}}}, {"name": "StatefulPartitionedCall/sequential_1/bidirectional_2/backward_lstm_2/PartitionedCall/while/merge/_135", "op": "Merge", "input": ["StatefulPartitionedCall/sequential_1/bidirectional_2/backward_lstm_2/PartitionedCall/while/enter/_124", "StatefulPartitionedCall/sequential_1/bidirectional_2/backward_lstm_2/PartitionedCall/while/next_iteration/_171"], "attr": {"N": {"i": "2"}, "T": {"type": "DT_INT32"}}}, {"name": "StatefulPartitionedCall/sequential_1/bidirectional_3/backward_lstm_3/PartitionedCall/while/merge/_255", "op": "Merge", "input": ["StatefulPartitionedCall/sequential_1/bidirectional_3/backward_lstm_3/PartitionedCall/while/enter/_244", "StatefulPartitionedCall/sequential_1/bidirectional_3/backward_lstm_3/PartitionedCall/while/next_iteration/_291"], "attr": {"N": {"i": "2"}, "T": {"type": "DT_INT32"}}}, {"name": "StatefulPartitionedCall/sequential_1/embedding_1/embedding_lookup", "op": "GatherV2", "input": ["unknown", "StatefulPartitionedCall/sequential_1/embedding_1/Cast", "StatefulPartitionedCall/sequential_1/embedding_1/embedding_lookup/axis"], "attr": {"Taxis": {"type": "DT_INT32"}, "Tindices": {"type": "DT_INT32"}, "Tparams": {"type": "DT_FLOAT"}, "batch_dims": {"i": "0"}}}, {"name": "StatefulPartitionedCall/sequential_1/bidirectional_2/forward_lstm_2/Shape", "op": "Shape", "input": ["StatefulPartitionedCall/sequential_1/embedding_1/embedding_lookup"], "attr": {"out_type": {"type": "DT_INT32"}, "T": {"type": "DT_FLOAT"}}}, {"name": "StatefulPartitionedCall/sequential_1/bidirectional_2/forward_lstm_2/PartitionedCall/transpose", "op": "Transpose", "input": ["StatefulPartitionedCall/sequential_1/embedding_1/embedding_lookup", "StatefulPartitionedCall/sequential_1/bidirectional_2/forward_lstm_2/PartitionedCall/transpose/perm"], "attr": {"T": {"type": "DT_FLOAT"}, "Tperm": {"type": "DT_INT32"}}}, {"name": "StatefulPartitionedCall/sequential_1/bidirectional_2/backward_lstm_2/Shape", "op": "Shape", "input": ["StatefulPartitionedCall/sequential_1/embedding_1/embedding_lookup"], "attr": {"T": {"type": "DT_FLOAT"}, "out_type": {"type": "DT_INT32"}}}, {"name": "StatefulPartitionedCall/sequential_1/bidirectional_2/backward_lstm_2/PartitionedCall/transpose", "op": "Transpose", "input": ["StatefulPartitionedCall/sequential_1/embedding_1/embedding_lookup", "StatefulPartitionedCall/sequential_1/bidirectional_2/backward_lstm_2/PartitionedCall/transpose/perm"], "attr": {"T": {"type": "DT_FLOAT"}, "Tperm": {"type": "DT_INT32"}}}, {"name": "StatefulPartitionedCall/sequential_1/bidirectional_2/forward_lstm_2/strided_slice", "op": "StridedSlice", "input": ["StatefulPartitionedCall/sequential_1/bidirectional_2/forward_lstm_2/Shape", "StatefulPartitionedCall/sequential_1/bidirectional_2/forward_lstm_2/strided_slice/stack", "StatefulPartitionedCall/sequential_1/bidirectional_2/forward_lstm_2/strided_slice/stack_1", "StatefulPartitionedCall/sequential_1/bidirectional_2/forward_lstm_2/strided_slice/stack_2"], "attr": {"begin_mask": {"i": "0"}, "ellipsis_mask": {"i": "0"}, "Index": {"type": "DT_INT32"}, "T": {"type": "DT_INT32"}, "shrink_axis_mask": {"i": "1"}, "new_axis_mask": {"i": "0"}, "end_mask": {"i": "0"}}}, {"name": "StatefulPartitionedCall/sequential_1/bidirectional_2/forward_lstm_2/PartitionedCall/TensorArrayUnstack/TensorListFromTensor", "op": "TensorListFromTensor", "input": ["StatefulPartitionedCall/sequential_1/bidirectional_2/forward_lstm_2/PartitionedCall/transpose", "StatefulPartitionedCall/sequential_1/bidirectional_2/forward_lstm_2/PartitionedCall/TensorArrayUnstack/TensorListFromTensor/element_shape"], "attr": {"shape_type": {"type": "DT_INT32"}, "element_dtype": {"type": "DT_FLOAT"}}}, {"name": "StatefulPartitionedCall/sequential_1/bidirectional_2/forward_lstm_2/PartitionedCall/Shape", "op": "Shape", "input": ["StatefulPartitionedCall/sequential_1/bidirectional_2/forward_lstm_2/PartitionedCall/transpose"], "attr": {"T": {"type": "DT_FLOAT"}, "out_type": {"type": "DT_INT32"}}}, {"name": "StatefulPartitionedCall/sequential_1/bidirectional_2/backward_lstm_2/strided_slice", "op": "StridedSlice", "input": ["StatefulPartitionedCall/sequential_1/bidirectional_2/backward_lstm_2/Shape", "StatefulPartitionedCall/sequential_1/bidirectional_2/backward_lstm_2/strided_slice/stack", "StatefulPartitionedCall/sequential_1/bidirectional_2/backward_lstm_2/strided_slice/stack_1", "StatefulPartitionedCall/sequential_1/bidirectional_2/backward_lstm_2/strided_slice/stack_2"], "attr": {"end_mask": {"i": "0"}, "begin_mask": {"i": "0"}, "Index": {"type": "DT_INT32"}, "new_axis_mask": {"i": "0"}, "T": {"type": "DT_INT32"}, "ellipsis_mask": {"i": "0"}, "shrink_axis_mask": {"i": "1"}}}, {"name": "StatefulPartitionedCall/sequential_1/bidirectional_2/backward_lstm_2/PartitionedCall/ReverseV2", "op": "ReverseV2", "input": ["StatefulPartitionedCall/sequential_1/bidirectional_2/backward_lstm_2/PartitionedCall/transpose", "StatefulPartitionedCall/sequential_1/bidirectional_2/backward_lstm_2/PartitionedCall/ReverseV2/axis"], "attr": {"T": {"type": "DT_FLOAT"}, "Tidx": {"type": "DT_INT32"}}}, {"name": "StatefulPartitionedCall/sequential_1/bidirectional_2/backward_lstm_2/PartitionedCall/Shape", "op": "Shape", "input": ["StatefulPartitionedCall/sequential_1/bidirectional_2/backward_lstm_2/PartitionedCall/transpose"], "attr": {"out_type": {"type": "DT_INT32"}, "T": {"type": "DT_FLOAT"}}}, {"name": "StatefulPartitionedCall/sequential_1/bidirectional_2/forward_lstm_2/zeros_1/packed", "op": "Pack", "input": ["StatefulPartitionedCall/sequential_1/bidirectional_2/forward_lstm_2/strided_slice", "StatefulPartitionedCall/sequential_1/bidirectional_2/forward_lstm_2/zeros_1/packed/1"], "attr": {"N": {"i": "2"}, "axis": {"i": "0"}, "T": {"type": "DT_INT32"}}}, {"name": "StatefulPartitionedCall/sequential_1/bidirectional_2/forward_lstm_2/zeros/packed", "op": "Pack", "input": ["StatefulPartitionedCall/sequential_1/bidirectional_2/forward_lstm_2/strided_slice", "StatefulPartitionedCall/sequential_1/bidirectional_2/forward_lstm_2/zeros/packed/1"], "attr": {"T": {"type": "DT_INT32"}, "N": {"i": "2"}, "axis": {"i": "0"}}}, {"name": "StatefulPartitionedCall/sequential_1/bidirectional_2/forward_lstm_2/PartitionedCall/while/enter/_71", "op": "Enter", "input": ["StatefulPartitionedCall/sequential_1/bidirectional_2/forward_lstm_2/PartitionedCall/TensorArrayUnstack/TensorListFromTensor"], "attr": {"T": {"type": "DT_VARIANT"}, "frame_name": {"s": "U3RhdGVmdWxQYXJ0aXRpb25lZENhbGwvc2VxdWVudGlhbF8xL2JpZGlyZWN0aW9uYWxfMi9mb3J3YXJkX2xzdG1fMi9QYXJ0aXRpb25lZENhbGwvd2hpbGU="}, "parallel_iterations": {"i": "32"}, "is_constant": {"b": false}}}, {"name": "StatefulPartitionedCall/sequential_1/bidirectional_2/forward_lstm_2/PartitionedCall/strided_slice", "op": "StridedSlice", "input": ["StatefulPartitionedCall/sequential_1/bidirectional_2/forward_lstm_2/PartitionedCall/Shape", "StatefulPartitionedCall/sequential_1/bidirectional_2/forward_lstm_2/PartitionedCall/strided_slice/stack", "StatefulPartitionedCall/sequential_1/bidirectional_2/forward_lstm_2/PartitionedCall/strided_slice/stack_1", "StatefulPartitionedCall/sequential_1/bidirectional_2/forward_lstm_2/PartitionedCall/strided_slice/stack_2"], "attr": {"shrink_axis_mask": {"i": "1"}, "ellipsis_mask": {"i": "0"}, "begin_mask": {"i": "0"}, "T": {"type": "DT_INT32"}, "end_mask": {"i": "0"}, "Index": {"type": "DT_INT32"}, "new_axis_mask": {"i": "0"}}}, {"name": "StatefulPartitionedCall/sequential_1/bidirectional_2/backward_lstm_2/zeros_1/packed", "op": "Pack", "input": ["StatefulPartitionedCall/sequential_1/bidirectional_2/backward_lstm_2/strided_slice", "StatefulPartitionedCall/sequential_1/bidirectional_2/backward_lstm_2/zeros_1/packed/1"], "attr": {"N": {"i": "2"}, "axis": {"i": "0"}, "T": {"type": "DT_INT32"}}}, {"name": "StatefulPartitionedCall/sequential_1/bidirectional_2/backward_lstm_2/zeros/packed", "op": "Pack", "input": ["StatefulPartitionedCall/sequential_1/bidirectional_2/backward_lstm_2/strided_slice", "StatefulPartitionedCall/sequential_1/bidirectional_2/backward_lstm_2/zeros/packed/1"], "attr": {"T": {"type": "DT_INT32"}, "axis": {"i": "0"}, "N": {"i": "2"}}}, {"name": "StatefulPartitionedCall/sequential_1/bidirectional_2/backward_lstm_2/PartitionedCall/TensorArrayUnstack/TensorListFromTensor", "op": "TensorListFromTensor", "input": ["StatefulPartitionedCall/sequential_1/bidirectional_2/backward_lstm_2/PartitionedCall/ReverseV2", "StatefulPartitionedCall/sequential_1/bidirectional_2/backward_lstm_2/PartitionedCall/TensorArrayUnstack/TensorListFromTensor/element_shape"], "attr": {"element_dtype": {"type": "DT_FLOAT"}, "shape_type": {"type": "DT_INT32"}}}, {"name": "StatefulPartitionedCall/sequential_1/bidirectional_2/backward_lstm_2/PartitionedCall/strided_slice", "op": "StridedSlice", "input": ["StatefulPartitionedCall/sequential_1/bidirectional_2/backward_lstm_2/PartitionedCall/Shape", "StatefulPartitionedCall/sequential_1/bidirectional_2/backward_lstm_2/PartitionedCall/strided_slice/stack", "StatefulPartitionedCall/sequential_1/bidirectional_2/backward_lstm_2/PartitionedCall/strided_slice/stack_1", "StatefulPartitionedCall/sequential_1/bidirectional_2/backward_lstm_2/PartitionedCall/strided_slice/stack_2"], "attr": {"end_mask": {"i": "0"}, "Index": {"type": "DT_INT32"}, "ellipsis_mask": {"i": "0"}, "T": {"type": "DT_INT32"}, "new_axis_mask": {"i": "0"}, "shrink_axis_mask": {"i": "1"}, "begin_mask": {"i": "0"}}}, {"name": "StatefulPartitionedCall/sequential_1/bidirectional_2/forward_lstm_2/zeros_1", "op": "Fill", "input": ["StatefulPartitionedCall/sequential_1/bidirectional_2/forward_lstm_2/zeros_1/packed", "StatefulPartitionedCall/sequential_1/bidirectional_2/forward_lstm_2/zeros_1/Const"], "attr": {"index_type": {"type": "DT_INT32"}, "T": {"type": "DT_FLOAT"}}}, {"name": "StatefulPartitionedCall/sequential_1/bidirectional_2/forward_lstm_2/zeros", "op": "Fill", "input": ["StatefulPartitionedCall/sequential_1/bidirectional_2/forward_lstm_2/zeros/packed", "StatefulPartitionedCall/sequential_1/bidirectional_2/forward_lstm_2/zeros/Const"], "attr": {"T": {"type": "DT_FLOAT"}, "index_type": {"type": "DT_INT32"}}}, {"name": "StatefulPartitionedCall/sequential_1/bidirectional_2/forward_lstm_2/PartitionedCall/while/merge/_82", "op": "Merge", "input": ["StatefulPartitionedCall/sequential_1/bidirectional_2/forward_lstm_2/PartitionedCall/while/enter/_71", "StatefulPartitionedCall/sequential_1/bidirectional_2/forward_lstm_2/PartitionedCall/while/next_iteration/_118"], "attr": {"T": {"type": "DT_VARIANT"}, "N": {"i": "2"}}}, {"name": "StatefulPartitionedCall/sequential_1/bidirectional_2/forward_lstm_2/PartitionedCall/TensorArrayV2_1", "op": "TensorListReserve", "input": ["StatefulPartitionedCall/sequential_1/bidirectional_2/forward_lstm_2/PartitionedCall/TensorArrayV2_1/element_shape", "StatefulPartitionedCall/sequential_1/bidirectional_2/forward_lstm_2/PartitionedCall/strided_slice"], "attr": {"element_dtype": {"type": "DT_FLOAT"}, "shape_type": {"type": "DT_INT32"}}}, {"name": "StatefulPartitionedCall/sequential_1/bidirectional_2/forward_lstm_2/PartitionedCall/while/enter/_70", "op": "Enter", "input": ["StatefulPartitionedCall/sequential_1/bidirectional_2/forward_lstm_2/PartitionedCall/strided_slice"], "attr": {"frame_name": {"s": "U3RhdGVmdWxQYXJ0aXRpb25lZENhbGwvc2VxdWVudGlhbF8xL2JpZGlyZWN0aW9uYWxfMi9mb3J3YXJkX2xzdG1fMi9QYXJ0aXRpb25lZENhbGwvd2hpbGU="}, "parallel_iterations": {"i": "32"}, "is_constant": {"b": false}, "T": {"type": "DT_INT32"}}}, {"name": "StatefulPartitionedCall/sequential_1/bidirectional_2/backward_lstm_2/zeros_1", "op": "Fill", "input": ["StatefulPartitionedCall/sequential_1/bidirectional_2/backward_lstm_2/zeros_1/packed", "StatefulPartitionedCall/sequential_1/bidirectional_2/backward_lstm_2/zeros_1/Const"], "attr": {"T": {"type": "DT_FLOAT"}, "index_type": {"type": "DT_INT32"}}}, {"name": "StatefulPartitionedCall/sequential_1/bidirectional_2/backward_lstm_2/zeros", "op": "Fill", "input": ["StatefulPartitionedCall/sequential_1/bidirectional_2/backward_lstm_2/zeros/packed", "StatefulPartitionedCall/sequential_1/bidirectional_2/backward_lstm_2/zeros/Const"], "attr": {"T": {"type": "DT_FLOAT"}, "index_type": {"type": "DT_INT32"}}}, {"name": "StatefulPartitionedCall/sequential_1/bidirectional_2/backward_lstm_2/PartitionedCall/while/enter/_131", "op": "Enter", "input": ["StatefulPartitionedCall/sequential_1/bidirectional_2/backward_lstm_2/PartitionedCall/TensorArrayUnstack/TensorListFromTensor"], "attr": {"frame_name": {"s": "U3RhdGVmdWxQYXJ0aXRpb25lZENhbGwvc2VxdWVudGlhbF8xL2JpZGlyZWN0aW9uYWxfMi9iYWNrd2FyZF9sc3RtXzIvUGFydGl0aW9uZWRDYWxsL3doaWxl"}, "T": {"type": "DT_VARIANT"}, "is_constant": {"b": false}, "parallel_iterations": {"i": "32"}}}, {"name": "StatefulPartitionedCall/sequential_1/bidirectional_2/backward_lstm_2/PartitionedCall/TensorArrayV2_1", "op": "TensorListReserve", "input": ["StatefulPartitionedCall/sequential_1/bidirectional_2/backward_lstm_2/PartitionedCall/TensorArrayV2_1/element_shape", "StatefulPartitionedCall/sequential_1/bidirectional_2/backward_lstm_2/PartitionedCall/strided_slice"], "attr": {"shape_type": {"type": "DT_INT32"}, "element_dtype": {"type": "DT_FLOAT"}}}, {"name": "StatefulPartitionedCall/sequential_1/bidirectional_2/backward_lstm_2/PartitionedCall/while/enter/_130", "op": "Enter", "input": ["StatefulPartitionedCall/sequential_1/bidirectional_2/backward_lstm_2/PartitionedCall/strided_slice"], "attr": {"is_constant": {"b": false}, "frame_name": {"s": "U3RhdGVmdWxQYXJ0aXRpb25lZENhbGwvc2VxdWVudGlhbF8xL2JpZGlyZWN0aW9uYWxfMi9iYWNrd2FyZF9sc3RtXzIvUGFydGl0aW9uZWRDYWxsL3doaWxl"}, "T": {"type": "DT_INT32"}, "parallel_iterations": {"i": "32"}}}, {"name": "StatefulPartitionedCall/sequential_1/bidirectional_2/forward_lstm_2/PartitionedCall/while/enter/_69", "op": "Enter", "input": ["StatefulPartitionedCall/sequential_1/bidirectional_2/forward_lstm_2/zeros_1"], "attr": {"frame_name": {"s": "U3RhdGVmdWxQYXJ0aXRpb25lZENhbGwvc2VxdWVudGlhbF8xL2JpZGlyZWN0aW9uYWxfMi9mb3J3YXJkX2xzdG1fMi9QYXJ0aXRpb25lZENhbGwvd2hpbGU="}, "parallel_iterations": {"i": "32"}, "is_constant": {"b": false}, "T": {"type": "DT_FLOAT"}}}, {"name": "StatefulPartitionedCall/sequential_1/bidirectional_2/forward_lstm_2/PartitionedCall/while/enter/_68", "op": "Enter", "input": ["StatefulPartitionedCall/sequential_1/bidirectional_2/forward_lstm_2/zeros"], "attr": {"frame_name": {"s": "U3RhdGVmdWxQYXJ0aXRpb25lZENhbGwvc2VxdWVudGlhbF8xL2JpZGlyZWN0aW9uYWxfMi9mb3J3YXJkX2xzdG1fMi9QYXJ0aXRpb25lZENhbGwvd2hpbGU="}, "T": {"type": "DT_FLOAT"}, "is_constant": {"b": false}, "parallel_iterations": {"i": "32"}}}, {"name": "StatefulPartitionedCall/sequential_1/bidirectional_2/forward_lstm_2/PartitionedCall/while/enter/_67", "op": "Enter", "input": ["StatefulPartitionedCall/sequential_1/bidirectional_2/forward_lstm_2/PartitionedCall/TensorArrayV2_1"], "attr": {"parallel_iterations": {"i": "32"}, "is_constant": {"b": false}, "T": {"type": "DT_VARIANT"}, "frame_name": {"s": "U3RhdGVmdWxQYXJ0aXRpb25lZENhbGwvc2VxdWVudGlhbF8xL2JpZGlyZWN0aW9uYWxfMi9mb3J3YXJkX2xzdG1fMi9QYXJ0aXRpb25lZENhbGwvd2hpbGU="}}}, {"name": "StatefulPartitionedCall/sequential_1/bidirectional_2/forward_lstm_2/PartitionedCall/while/merge/_81", "op": "Merge", "input": ["StatefulPartitionedCall/sequential_1/bidirectional_2/forward_lstm_2/PartitionedCall/while/enter/_70", "StatefulPartitionedCall/sequential_1/bidirectional_2/forward_lstm_2/PartitionedCall/while/next_iteration/_117"], "attr": {"T": {"type": "DT_INT32"}, "N": {"i": "2"}}}, {"name": "StatefulPartitionedCall/sequential_1/bidirectional_2/backward_lstm_2/PartitionedCall/while/enter/_129", "op": "Enter", "input": ["StatefulPartitionedCall/sequential_1/bidirectional_2/backward_lstm_2/zeros_1"], "attr": {"frame_name": {"s": "U3RhdGVmdWxQYXJ0aXRpb25lZENhbGwvc2VxdWVudGlhbF8xL2JpZGlyZWN0aW9uYWxfMi9iYWNrd2FyZF9sc3RtXzIvUGFydGl0aW9uZWRDYWxsL3doaWxl"}, "is_constant": {"b": false}, "T": {"type": "DT_FLOAT"}, "parallel_iterations": {"i": "32"}}}, {"name": "StatefulPartitionedCall/sequential_1/bidirectional_2/backward_lstm_2/PartitionedCall/while/enter/_128", "op": "Enter", "input": ["StatefulPartitionedCall/sequential_1/bidirectional_2/backward_lstm_2/zeros"], "attr": {"is_constant": {"b": false}, "parallel_iterations": {"i": "32"}, "frame_name": {"s": "U3RhdGVmdWxQYXJ0aXRpb25lZENhbGwvc2VxdWVudGlhbF8xL2JpZGlyZWN0aW9uYWxfMi9iYWNrd2FyZF9sc3RtXzIvUGFydGl0aW9uZWRDYWxsL3doaWxl"}, "T": {"type": "DT_FLOAT"}}}, {"name": "StatefulPartitionedCall/sequential_1/bidirectional_2/backward_lstm_2/PartitionedCall/while/merge/_142", "op": "Merge", "input": ["StatefulPartitionedCall/sequential_1/bidirectional_2/backward_lstm_2/PartitionedCall/while/enter/_131", "StatefulPartitionedCall/sequential_1/bidirectional_2/backward_lstm_2/PartitionedCall/while/next_iteration/_178"], "attr": {"N": {"i": "2"}, "T": {"type": "DT_VARIANT"}}}, {"name": "StatefulPartitionedCall/sequential_1/bidirectional_2/backward_lstm_2/PartitionedCall/while/enter/_127", "op": "Enter", "input": ["StatefulPartitionedCall/sequential_1/bidirectional_2/backward_lstm_2/PartitionedCall/TensorArrayV2_1"], "attr": {"parallel_iterations": {"i": "32"}, "frame_name": {"s": "U3RhdGVmdWxQYXJ0aXRpb25lZENhbGwvc2VxdWVudGlhbF8xL2JpZGlyZWN0aW9uYWxfMi9iYWNrd2FyZF9sc3RtXzIvUGFydGl0aW9uZWRDYWxsL3doaWxl"}, "T": {"type": "DT_VARIANT"}, "is_constant": {"b": false}}}, {"name": "StatefulPartitionedCall/sequential_1/bidirectional_2/backward_lstm_2/PartitionedCall/while/merge/_141", "op": "Merge", "input": ["StatefulPartitionedCall/sequential_1/bidirectional_2/backward_lstm_2/PartitionedCall/while/enter/_130", "StatefulPartitionedCall/sequential_1/bidirectional_2/backward_lstm_2/PartitionedCall/while/next_iteration/_177"], "attr": {"N": {"i": "2"}, "T": {"type": "DT_INT32"}}}, {"name": "StatefulPartitionedCall/sequential_1/bidirectional_2/forward_lstm_2/PartitionedCall/while/merge/_80", "op": "Merge", "input": ["StatefulPartitionedCall/sequential_1/bidirectional_2/forward_lstm_2/PartitionedCall/while/enter/_69", "StatefulPartitionedCall/sequential_1/bidirectional_2/forward_lstm_2/PartitionedCall/while/next_iteration/_116"], "attr": {"T": {"type": "DT_FLOAT"}, "N": {"i": "2"}}}, {"name": "StatefulPartitionedCall/sequential_1/bidirectional_2/forward_lstm_2/PartitionedCall/while/merge/_79", "op": "Merge", "input": ["StatefulPartitionedCall/sequential_1/bidirectional_2/forward_lstm_2/PartitionedCall/while/enter/_68", "StatefulPartitionedCall/sequential_1/bidirectional_2/forward_lstm_2/PartitionedCall/while/next_iteration/_115"], "attr": {"N": {"i": "2"}, "T": {"type": "DT_FLOAT"}}}, {"name": "StatefulPartitionedCall/sequential_1/bidirectional_2/forward_lstm_2/PartitionedCall/while/merge/_78", "op": "Merge", "input": ["StatefulPartitionedCall/sequential_1/bidirectional_2/forward_lstm_2/PartitionedCall/while/enter/_67", "StatefulPartitionedCall/sequential_1/bidirectional_2/forward_lstm_2/PartitionedCall/while/next_iteration/_114"], "attr": {"T": {"type": "DT_VARIANT"}, "N": {"i": "2"}}}, {"name": "StatefulPartitionedCall/sequential_1/bidirectional_2/forward_lstm_2/PartitionedCall/while/cond/_62/while/Less", "op": "Less", "input": ["StatefulPartitionedCall/sequential_1/bidirectional_2/forward_lstm_2/PartitionedCall/while/merge/_77", "StatefulPartitionedCall/sequential_1/bidirectional_2/forward_lstm_2/PartitionedCall/while/merge/_81", "^StatefulPartitionedCall/sequential_1/bidirectional_2/forward_lstm_2/PartitionedCall/while/merge/_75"], "attr": {"T": {"type": "DT_INT32"}}}, {"name": "StatefulPartitionedCall/sequential_1/bidirectional_2/backward_lstm_2/PartitionedCall/while/merge/_140", "op": "Merge", "input": ["StatefulPartitionedCall/sequential_1/bidirectional_2/backward_lstm_2/PartitionedCall/while/enter/_129", "StatefulPartitionedCall/sequential_1/bidirectional_2/backward_lstm_2/PartitionedCall/while/next_iteration/_176"], "attr": {"N": {"i": "2"}, "T": {"type": "DT_FLOAT"}}}, {"name": "StatefulPartitionedCall/sequential_1/bidirectional_2/backward_lstm_2/PartitionedCall/while/merge/_139", "op": "Merge", "input": ["StatefulPartitionedCall/sequential_1/bidirectional_2/backward_lstm_2/PartitionedCall/while/enter/_128", "StatefulPartitionedCall/sequential_1/bidirectional_2/backward_lstm_2/PartitionedCall/while/next_iteration/_175"], "attr": {"N": {"i": "2"}, "T": {"type": "DT_FLOAT"}}}, {"name": "StatefulPartitionedCall/sequential_1/bidirectional_2/backward_lstm_2/PartitionedCall/while/merge/_138", "op": "Merge", "input": ["StatefulPartitionedCall/sequential_1/bidirectional_2/backward_lstm_2/PartitionedCall/while/enter/_127", "StatefulPartitionedCall/sequential_1/bidirectional_2/backward_lstm_2/PartitionedCall/while/next_iteration/_174"], "attr": {"T": {"type": "DT_VARIANT"}, "N": {"i": "2"}}}, {"name": "StatefulPartitionedCall/sequential_1/bidirectional_2/backward_lstm_2/PartitionedCall/while/cond/_122/while/Less", "op": "Less", "input": ["StatefulPartitionedCall/sequential_1/bidirectional_2/backward_lstm_2/PartitionedCall/while/merge/_137", "StatefulPartitionedCall/sequential_1/bidirectional_2/backward_lstm_2/PartitionedCall/while/merge/_141", "^StatefulPartitionedCall/sequential_1/bidirectional_2/backward_lstm_2/PartitionedCall/while/merge/_135"], "attr": {"T": {"type": "DT_INT32"}}}, {"name": "StatefulPartitionedCall/sequential_1/bidirectional_2/forward_lstm_2/PartitionedCall/while/LoopCond/_86", "op": "LoopCond", "input": ["StatefulPartitionedCall/sequential_1/bidirectional_2/forward_lstm_2/PartitionedCall/while/cond/_62/while/Less"]}, {"name": "StatefulPartitionedCall/sequential_1/bidirectional_2/backward_lstm_2/PartitionedCall/while/LoopCond/_146", "op": "LoopCond", "input": ["StatefulPartitionedCall/sequential_1/bidirectional_2/backward_lstm_2/PartitionedCall/while/cond/_122/while/Less"]}, {"name": "StatefulPartitionedCall/sequential_1/bidirectional_2/forward_lstm_2/PartitionedCall/while/Func/StatefulPartitionedCall/sequential_1/bidirectional_2/forward_lstm_2/PartitionedCall/input/_20_switch/_92", "op": "Switch", "input": ["StatefulPartitionedCall/sequential_1/bidirectional_2/forward_lstm_2/PartitionedCall/while/merge/_80", "StatefulPartitionedCall/sequential_1/bidirectional_2/forward_lstm_2/PartitionedCall/while/LoopCond/_86"], "attr": {"T": {"type": "DT_FLOAT"}}}, {"name": "StatefulPartitionedCall/sequential_1/bidirectional_2/forward_lstm_2/PartitionedCall/while/StatefulPartitionedCall/sequential_1/bidirectional_2/forward_lstm_2/PartitionedCall/TensorArrayUnstack/TensorListFromTensor_switch/_94", "op": "Switch", "input": ["StatefulPartitionedCall/sequential_1/bidirectional_2/forward_lstm_2/PartitionedCall/while/merge/_82", "StatefulPartitionedCall/sequential_1/bidirectional_2/forward_lstm_2/PartitionedCall/while/LoopCond/_86"], "attr": {"T": {"type": "DT_VARIANT"}}}, {"name": "StatefulPartitionedCall/sequential_1/bidirectional_2/forward_lstm_2/PartitionedCall/while/Func/StatefulPartitionedCall/sequential_1/bidirectional_2/forward_lstm_2/PartitionedCall/input/_21_switch/_95", "op": "Switch", "input": ["StatefulPartitionedCall/sequential_1/bidirectional_2/forward_lstm_2/PartitionedCall/while/merge/_83", "StatefulPartitionedCall/sequential_1/bidirectional_2/forward_lstm_2/PartitionedCall/while/LoopCond/_86"], "attr": {"T": {"type": "DT_FLOAT"}}}, {"name": "StatefulPartitionedCall/sequential_1/bidirectional_2/forward_lstm_2/PartitionedCall/while/Func/StatefulPartitionedCall/sequential_1/bidirectional_2/forward_lstm_2/PartitionedCall/input/_19_switch/_91", "op": "Switch", "input": ["StatefulPartitionedCall/sequential_1/bidirectional_2/forward_lstm_2/PartitionedCall/while/merge/_79", "StatefulPartitionedCall/sequential_1/bidirectional_2/forward_lstm_2/PartitionedCall/while/LoopCond/_86"], "attr": {"T": {"type": "DT_FLOAT"}}}, {"name": "StatefulPartitionedCall/sequential_1/bidirectional_2/forward_lstm_2/PartitionedCall/while/Func/StatefulPartitionedCall/sequential_1/bidirectional_2/forward_lstm_2/PartitionedCall/input/_22_switch/_96", "op": "Switch", "input": ["StatefulPartitionedCall/sequential_1/bidirectional_2/forward_lstm_2/PartitionedCall/while/merge/_84", "StatefulPartitionedCall/sequential_1/bidirectional_2/forward_lstm_2/PartitionedCall/while/LoopCond/_86"], "attr": {"T": {"type": "DT_FLOAT"}}}, {"name": "StatefulPartitionedCall/sequential_1/bidirectional_2/forward_lstm_2/PartitionedCall/while/Func/StatefulPartitionedCall/sequential_1/bidirectional_2/forward_lstm_2/PartitionedCall/input/_23_switch/_97", "op": "Switch", "input": ["StatefulPartitionedCall/sequential_1/bidirectional_2/forward_lstm_2/PartitionedCall/while/merge/_85", "StatefulPartitionedCall/sequential_1/bidirectional_2/forward_lstm_2/PartitionedCall/while/LoopCond/_86"], "attr": {"T": {"type": "DT_FLOAT"}}}, {"name": "StatefulPartitionedCall/sequential_1/bidirectional_2/forward_lstm_2/PartitionedCall/while/StatefulPartitionedCall/sequential_1/bidirectional_2/forward_lstm_2/PartitionedCall/time_switch/_89", "op": "Switch", "input": ["StatefulPartitionedCall/sequential_1/bidirectional_2/forward_lstm_2/PartitionedCall/while/merge/_77", "StatefulPartitionedCall/sequential_1/bidirectional_2/forward_lstm_2/PartitionedCall/while/LoopCond/_86"], "attr": {"T": {"type": "DT_INT32"}}}, {"name": "StatefulPartitionedCall/sequential_1/bidirectional_2/forward_lstm_2/PartitionedCall/while/StatefulPartitionedCall/sequential_1/bidirectional_2/forward_lstm_2/PartitionedCall/while/loop_counter_switch/_87", "op": "Switch", "input": ["StatefulPartitionedCall/sequential_1/bidirectional_2/forward_lstm_2/PartitionedCall/while/merge/_75", "StatefulPartitionedCall/sequential_1/bidirectional_2/forward_lstm_2/PartitionedCall/while/LoopCond/_86"], "attr": {"T": {"type": "DT_INT32"}}}, {"name": "StatefulPartitionedCall/sequential_1/bidirectional_2/forward_lstm_2/PartitionedCall/while/StatefulPartitionedCall/sequential_1/bidirectional_2/forward_lstm_2/PartitionedCall/TensorArrayV2_1_switch/_90", "op": "Switch", "input": ["StatefulPartitionedCall/sequential_1/bidirectional_2/forward_lstm_2/PartitionedCall/while/merge/_78", "StatefulPartitionedCall/sequential_1/bidirectional_2/forward_lstm_2/PartitionedCall/while/LoopCond/_86"], "attr": {"T": {"type": "DT_VARIANT"}}}, {"name": "StatefulPartitionedCall/sequential_1/bidirectional_2/forward_lstm_2/PartitionedCall/while/StatefulPartitionedCall/sequential_1/bidirectional_2/forward_lstm_2/PartitionedCall/strided_slice_switch/_93", "op": "Switch", "input": ["StatefulPartitionedCall/sequential_1/bidirectional_2/forward_lstm_2/PartitionedCall/while/merge/_81", "StatefulPartitionedCall/sequential_1/bidirectional_2/forward_lstm_2/PartitionedCall/while/LoopCond/_86"], "attr": {"T": {"type": "DT_INT32"}}}, {"name": "StatefulPartitionedCall/sequential_1/bidirectional_2/backward_lstm_2/PartitionedCall/while/Func/StatefulPartitionedCall/sequential_1/bidirectional_2/backward_lstm_2/PartitionedCall/input/_31_switch/_152", "op": "Switch", "input": ["StatefulPartitionedCall/sequential_1/bidirectional_2/backward_lstm_2/PartitionedCall/while/merge/_140", "StatefulPartitionedCall/sequential_1/bidirectional_2/backward_lstm_2/PartitionedCall/while/LoopCond/_146"], "attr": {"T": {"type": "DT_FLOAT"}}}, {"name": "StatefulPartitionedCall/sequential_1/bidirectional_2/backward_lstm_2/PartitionedCall/while/StatefulPartitionedCall/sequential_1/bidirectional_2/backward_lstm_2/PartitionedCall/TensorArrayUnstack/TensorListFromTensor_switch/_154", "op": "Switch", "input": ["StatefulPartitionedCall/sequential_1/bidirectional_2/backward_lstm_2/PartitionedCall/while/merge/_142", "StatefulPartitionedCall/sequential_1/bidirectional_2/backward_lstm_2/PartitionedCall/while/LoopCond/_146"], "attr": {"T": {"type": "DT_VARIANT"}}}, {"name": "StatefulPartitionedCall/sequential_1/bidirectional_2/backward_lstm_2/PartitionedCall/while/Func/StatefulPartitionedCall/sequential_1/bidirectional_2/backward_lstm_2/PartitionedCall/input/_32_switch/_155", "op": "Switch", "input": ["StatefulPartitionedCall/sequential_1/bidirectional_2/backward_lstm_2/PartitionedCall/while/merge/_143", "StatefulPartitionedCall/sequential_1/bidirectional_2/backward_lstm_2/PartitionedCall/while/LoopCond/_146"], "attr": {"T": {"type": "DT_FLOAT"}}}, {"name": "StatefulPartitionedCall/sequential_1/bidirectional_2/backward_lstm_2/PartitionedCall/while/Func/StatefulPartitionedCall/sequential_1/bidirectional_2/backward_lstm_2/PartitionedCall/input/_30_switch/_151", "op": "Switch", "input": ["StatefulPartitionedCall/sequential_1/bidirectional_2/backward_lstm_2/PartitionedCall/while/merge/_139", "StatefulPartitionedCall/sequential_1/bidirectional_2/backward_lstm_2/PartitionedCall/while/LoopCond/_146"], "attr": {"T": {"type": "DT_FLOAT"}}}, {"name": "StatefulPartitionedCall/sequential_1/bidirectional_2/backward_lstm_2/PartitionedCall/while/Func/StatefulPartitionedCall/sequential_1/bidirectional_2/backward_lstm_2/PartitionedCall/input/_33_switch/_156", "op": "Switch", "input": ["StatefulPartitionedCall/sequential_1/bidirectional_2/backward_lstm_2/PartitionedCall/while/merge/_144", "StatefulPartitionedCall/sequential_1/bidirectional_2/backward_lstm_2/PartitionedCall/while/LoopCond/_146"], "attr": {"T": {"type": "DT_FLOAT"}}}, {"name": "StatefulPartitionedCall/sequential_1/bidirectional_2/backward_lstm_2/PartitionedCall/while/Func/StatefulPartitionedCall/sequential_1/bidirectional_2/backward_lstm_2/PartitionedCall/input/_34_switch/_157", "op": "Switch", "input": ["StatefulPartitionedCall/sequential_1/bidirectional_2/backward_lstm_2/PartitionedCall/while/merge/_145", "StatefulPartitionedCall/sequential_1/bidirectional_2/backward_lstm_2/PartitionedCall/while/LoopCond/_146"], "attr": {"T": {"type": "DT_FLOAT"}}}, {"name": "StatefulPartitionedCall/sequential_1/bidirectional_2/backward_lstm_2/PartitionedCall/while/StatefulPartitionedCall/sequential_1/bidirectional_2/backward_lstm_2/PartitionedCall/time_switch/_149", "op": "Switch", "input": ["StatefulPartitionedCall/sequential_1/bidirectional_2/backward_lstm_2/PartitionedCall/while/merge/_137", "StatefulPartitionedCall/sequential_1/bidirectional_2/backward_lstm_2/PartitionedCall/while/LoopCond/_146"], "attr": {"T": {"type": "DT_INT32"}}}, {"name": "StatefulPartitionedCall/sequential_1/bidirectional_2/backward_lstm_2/PartitionedCall/while/StatefulPartitionedCall/sequential_1/bidirectional_2/backward_lstm_2/PartitionedCall/while/loop_counter_switch/_147", "op": "Switch", "input": ["StatefulPartitionedCall/sequential_1/bidirectional_2/backward_lstm_2/PartitionedCall/while/merge/_135", "StatefulPartitionedCall/sequential_1/bidirectional_2/backward_lstm_2/PartitionedCall/while/LoopCond/_146"], "attr": {"T": {"type": "DT_INT32"}}}, {"name": "StatefulPartitionedCall/sequential_1/bidirectional_2/backward_lstm_2/PartitionedCall/while/StatefulPartitionedCall/sequential_1/bidirectional_2/backward_lstm_2/PartitionedCall/TensorArrayV2_1_switch/_150", "op": "Switch", "input": ["StatefulPartitionedCall/sequential_1/bidirectional_2/backward_lstm_2/PartitionedCall/while/merge/_138", "StatefulPartitionedCall/sequential_1/bidirectional_2/backward_lstm_2/PartitionedCall/while/LoopCond/_146"], "attr": {"T": {"type": "DT_VARIANT"}}}, {"name": "StatefulPartitionedCall/sequential_1/bidirectional_2/backward_lstm_2/PartitionedCall/while/StatefulPartitionedCall/sequential_1/bidirectional_2/backward_lstm_2/PartitionedCall/strided_slice_switch/_153", "op": "Switch", "input": ["StatefulPartitionedCall/sequential_1/bidirectional_2/backward_lstm_2/PartitionedCall/while/merge/_141", "StatefulPartitionedCall/sequential_1/bidirectional_2/backward_lstm_2/PartitionedCall/while/LoopCond/_146"], "attr": {"T": {"type": "DT_INT32"}}}, {"name": "StatefulPartitionedCall/sequential_1/bidirectional_2/forward_lstm_2/PartitionedCall/while/loop_body_control/_98", "op": "Identity", "input": ["StatefulPartitionedCall/sequential_1/bidirectional_2/forward_lstm_2/PartitionedCall/while/StatefulPartitionedCall/sequential_1/bidirectional_2/forward_lstm_2/PartitionedCall/while/loop_counter_switch/_87:1"], "attr": {"T": {"type": "DT_INT32"}}}, {"name": "StatefulPartitionedCall/sequential_1/bidirectional_2/forward_lstm_2/PartitionedCall/while/exit/_102", "op": "Exit", "input": ["StatefulPartitionedCall/sequential_1/bidirectional_2/forward_lstm_2/PartitionedCall/while/StatefulPartitionedCall/sequential_1/bidirectional_2/forward_lstm_2/PartitionedCall/TensorArrayV2_1_switch/_90"], "attr": {"T": {"type": "DT_VARIANT"}}}, {"name": "StatefulPartitionedCall/sequential_1/bidirectional_2/backward_lstm_2/PartitionedCall/while/loop_body_control/_158", "op": "Identity", "input": ["StatefulPartitionedCall/sequential_1/bidirectional_2/backward_lstm_2/PartitionedCall/while/StatefulPartitionedCall/sequential_1/bidirectional_2/backward_lstm_2/PartitionedCall/while/loop_counter_switch/_147:1"], "attr": {"T": {"type": "DT_INT32"}}}, {"name": "StatefulPartitionedCall/sequential_1/bidirectional_2/backward_lstm_2/PartitionedCall/while/exit/_162", "op": "Exit", "input": ["StatefulPartitionedCall/sequential_1/bidirectional_2/backward_lstm_2/PartitionedCall/while/StatefulPartitionedCall/sequential_1/bidirectional_2/backward_lstm_2/PartitionedCall/TensorArrayV2_1_switch/_150"], "attr": {"T": {"type": "DT_VARIANT"}}}, {"name": "StatefulPartitionedCall/sequential_1/bidirectional_2/forward_lstm_2/PartitionedCall/while/body/_63/while/split/split_dim", "op": "Const", "input": ["^StatefulPartitionedCall/sequential_1/bidirectional_2/forward_lstm_2/PartitionedCall/while/loop_body_control/_98"], "attr": {"dtype": {"type": "DT_INT32"}, "value": {"tensor": {"dtype": "DT_INT32", "tensorShape": {}}}}}, {"name": "StatefulPartitionedCall/sequential_1/bidirectional_2/forward_lstm_2/PartitionedCall/while/next_iteration/_118", "op": "NextIteration", "input": ["StatefulPartitionedCall/sequential_1/bidirectional_2/forward_lstm_2/PartitionedCall/while/StatefulPartitionedCall/sequential_1/bidirectional_2/forward_lstm_2/PartitionedCall/TensorArrayUnstack/TensorListFromTensor_switch/_94:1", "^StatefulPartitionedCall/sequential_1/bidirectional_2/forward_lstm_2/PartitionedCall/while/loop_body_control/_98"], "attr": {"T": {"type": "DT_VARIANT"}}}, {"name": "StatefulPartitionedCall/sequential_1/bidirectional_2/forward_lstm_2/PartitionedCall/while/body/_63/while/TensorArrayV2Read/TensorListGetItem/element_shape", "op": "Const", "input": ["^StatefulPartitionedCall/sequential_1/bidirectional_2/forward_lstm_2/PartitionedCall/while/loop_body_control/_98"], "attr": {"value": {"tensor": {"dtype": "DT_INT32", "tensorShape": {"dim": [{"size": "2"}]}}}, "dtype": {"type": "DT_INT32"}}}, {"name": "StatefulPartitionedCall/sequential_1/bidirectional_2/forward_lstm_2/PartitionedCall/while/next_iteration/_119", "op": "NextIteration", "input": ["StatefulPartitionedCall/sequential_1/bidirectional_2/forward_lstm_2/PartitionedCall/while/Func/StatefulPartitionedCall/sequential_1/bidirectional_2/forward_lstm_2/PartitionedCall/input/_21_switch/_95:1", "^StatefulPartitionedCall/sequential_1/bidirectional_2/forward_lstm_2/PartitionedCall/while/loop_body_control/_98"], "attr": {"T": {"type": "DT_FLOAT"}}}, {"name": "StatefulPartitionedCall/sequential_1/bidirectional_2/forward_lstm_2/PartitionedCall/while/next_iteration/_120", "op": "NextIteration", "input": ["StatefulPartitionedCall/sequential_1/bidirectional_2/forward_lstm_2/PartitionedCall/while/Func/StatefulPartitionedCall/sequential_1/bidirectional_2/forward_lstm_2/PartitionedCall/input/_22_switch/_96:1", "^StatefulPartitionedCall/sequential_1/bidirectional_2/forward_lstm_2/PartitionedCall/while/loop_body_control/_98"], "attr": {"T": {"type": "DT_FLOAT"}}}, {"name": "StatefulPartitionedCall/sequential_1/bidirectional_2/forward_lstm_2/PartitionedCall/while/body/_63/while/MatMul_1", "op": "MatMul", "input": ["StatefulPartitionedCall/sequential_1/bidirectional_2/forward_lstm_2/PartitionedCall/while/Func/StatefulPartitionedCall/sequential_1/bidirectional_2/forward_lstm_2/PartitionedCall/input/_19_switch/_91:1", "StatefulPartitionedCall/sequential_1/bidirectional_2/forward_lstm_2/PartitionedCall/while/Func/StatefulPartitionedCall/sequential_1/bidirectional_2/forward_lstm_2/PartitionedCall/input/_22_switch/_96:1", "^StatefulPartitionedCall/sequential_1/bidirectional_2/forward_lstm_2/PartitionedCall/while/loop_body_control/_98"], "device": "/device:CPU:0", "attr": {"transpose_a": {"b": false}, "T": {"type": "DT_FLOAT"}, "transpose_b": {"b": false}}}, {"name": "StatefulPartitionedCall/sequential_1/bidirectional_2/forward_lstm_2/PartitionedCall/while/next_iteration/_121", "op": "NextIteration", "input": ["StatefulPartitionedCall/sequential_1/bidirectional_2/forward_lstm_2/PartitionedCall/while/Func/StatefulPartitionedCall/sequential_1/bidirectional_2/forward_lstm_2/PartitionedCall/input/_23_switch/_97:1", "^StatefulPartitionedCall/sequential_1/bidirectional_2/forward_lstm_2/PartitionedCall/while/loop_body_control/_98"], "attr": {"T": {"type": "DT_FLOAT"}}}, {"name": "Func/StatefulPartitionedCall/sequential_1/bidirectional_2/forward_lstm_2/PartitionedCall/while/body/_63/input/_318", "op": "Identity", "input": ["StatefulPartitionedCall/sequential_1/bidirectional_2/forward_lstm_2/PartitionedCall/while/StatefulPartitionedCall/sequential_1/bidirectional_2/forward_lstm_2/PartitionedCall/time_switch/_89:1", "^StatefulPartitionedCall/sequential_1/bidirectional_2/forward_lstm_2/PartitionedCall/while/loop_body_control/_98"], "attr": {"T": {"type": "DT_INT32"}}}, {"name": "StatefulPartitionedCall/sequential_1/bidirectional_2/forward_lstm_2/PartitionedCall/while/body/_63/while/add_2/y", "op": "Const", "input": ["^StatefulPartitionedCall/sequential_1/bidirectional_2/forward_lstm_2/PartitionedCall/while/loop_body_control/_98"], "attr": {"dtype": {"type": "DT_INT32"}, "value": {"tensor": {"dtype": "DT_INT32", "tensorShape": {}}}}}, {"name": "StatefulPartitionedCall/sequential_1/bidirectional_2/forward_lstm_2/PartitionedCall/while/body/_63/while/add_3/y", "op": "Const", "input": ["^StatefulPartitionedCall/sequential_1/bidirectional_2/forward_lstm_2/PartitionedCall/while/loop_body_control/_98"], "attr": {"value": {"tensor": {"dtype": "DT_INT32", "tensorShape": {}}}, "dtype": {"type": "DT_INT32"}}}, {"name": "StatefulPartitionedCall/sequential_1/bidirectional_2/forward_lstm_2/PartitionedCall/while/next_iteration/_117", "op": "NextIteration", "input": ["StatefulPartitionedCall/sequential_1/bidirectional_2/forward_lstm_2/PartitionedCall/while/StatefulPartitionedCall/sequential_1/bidirectional_2/forward_lstm_2/PartitionedCall/strided_slice_switch/_93:1", "^StatefulPartitionedCall/sequential_1/bidirectional_2/forward_lstm_2/PartitionedCall/while/loop_body_control/_98"], "attr": {"T": {"type": "DT_INT32"}}}, {"name": "StatefulPartitionedCall/sequential_1/bidirectional_2/forward_lstm_2/PartitionedCall/TensorArrayV2Stack/TensorListStack", "op": "TensorListStack", "input": ["StatefulPartitionedCall/sequential_1/bidirectional_2/forward_lstm_2/PartitionedCall/while/exit/_102", "StatefulPartitionedCall/sequential_1/bidirectional_2/forward_lstm_2/PartitionedCall/TensorArrayV2Stack/TensorListStack/element_shape"], "attr": {"num_elements": {"i": "-1"}, "element_dtype": {"type": "DT_FLOAT"}}}, {"name": "StatefulPartitionedCall/sequential_1/bidirectional_2/backward_lstm_2/PartitionedCall/while/body/_123/while/split/split_dim", "op": "Const", "input": ["^StatefulPartitionedCall/sequential_1/bidirectional_2/backward_lstm_2/PartitionedCall/while/loop_body_control/_158"], "attr": {"value": {"tensor": {"dtype": "DT_INT32", "tensorShape": {}}}, "dtype": {"type": "DT_INT32"}}}, {"name": "StatefulPartitionedCall/sequential_1/bidirectional_2/backward_lstm_2/PartitionedCall/while/next_iteration/_178", "op": "NextIteration", "input": ["StatefulPartitionedCall/sequential_1/bidirectional_2/backward_lstm_2/PartitionedCall/while/StatefulPartitionedCall/sequential_1/bidirectional_2/backward_lstm_2/PartitionedCall/TensorArrayUnstack/TensorListFromTensor_switch/_154:1", "^StatefulPartitionedCall/sequential_1/bidirectional_2/backward_lstm_2/PartitionedCall/while/loop_body_control/_158"], "attr": {"T": {"type": "DT_VARIANT"}}}, {"name": "StatefulPartitionedCall/sequential_1/bidirectional_2/backward_lstm_2/PartitionedCall/while/body/_123/while/TensorArrayV2Read/TensorListGetItem/element_shape", "op": "Const", "input": ["^StatefulPartitionedCall/sequential_1/bidirectional_2/backward_lstm_2/PartitionedCall/while/loop_body_control/_158"], "attr": {"dtype": {"type": "DT_INT32"}, "value": {"tensor": {"dtype": "DT_INT32", "tensorShape": {"dim": [{"size": "2"}]}}}}}, {"name": "StatefulPartitionedCall/sequential_1/bidirectional_2/backward_lstm_2/PartitionedCall/while/next_iteration/_179", "op": "NextIteration", "input": ["StatefulPartitionedCall/sequential_1/bidirectional_2/backward_lstm_2/PartitionedCall/while/Func/StatefulPartitionedCall/sequential_1/bidirectional_2/backward_lstm_2/PartitionedCall/input/_32_switch/_155:1", "^StatefulPartitionedCall/sequential_1/bidirectional_2/backward_lstm_2/PartitionedCall/while/loop_body_control/_158"], "attr": {"T": {"type": "DT_FLOAT"}}}, {"name": "StatefulPartitionedCall/sequential_1/bidirectional_2/backward_lstm_2/PartitionedCall/while/next_iteration/_180", "op": "NextIteration", "input": ["StatefulPartitionedCall/sequential_1/bidirectional_2/backward_lstm_2/PartitionedCall/while/Func/StatefulPartitionedCall/sequential_1/bidirectional_2/backward_lstm_2/PartitionedCall/input/_33_switch/_156:1", "^StatefulPartitionedCall/sequential_1/bidirectional_2/backward_lstm_2/PartitionedCall/while/loop_body_control/_158"], "attr": {"T": {"type": "DT_FLOAT"}}}, {"name": "StatefulPartitionedCall/sequential_1/bidirectional_2/backward_lstm_2/PartitionedCall/while/body/_123/while/MatMul_1", "op": "MatMul", "input": ["StatefulPartitionedCall/sequential_1/bidirectional_2/backward_lstm_2/PartitionedCall/while/Func/StatefulPartitionedCall/sequential_1/bidirectional_2/backward_lstm_2/PartitionedCall/input/_30_switch/_151:1", "StatefulPartitionedCall/sequential_1/bidirectional_2/backward_lstm_2/PartitionedCall/while/Func/StatefulPartitionedCall/sequential_1/bidirectional_2/backward_lstm_2/PartitionedCall/input/_33_switch/_156:1", "^StatefulPartitionedCall/sequential_1/bidirectional_2/backward_lstm_2/PartitionedCall/while/loop_body_control/_158"], "device": "/device:CPU:0", "attr": {"transpose_b": {"b": false}, "transpose_a": {"b": false}, "T": {"type": "DT_FLOAT"}}}, {"name": "StatefulPartitionedCall/sequential_1/bidirectional_2/backward_lstm_2/PartitionedCall/while/next_iteration/_181", "op": "NextIteration", "input": ["StatefulPartitionedCall/sequential_1/bidirectional_2/backward_lstm_2/PartitionedCall/while/Func/StatefulPartitionedCall/sequential_1/bidirectional_2/backward_lstm_2/PartitionedCall/input/_34_switch/_157:1", "^StatefulPartitionedCall/sequential_1/bidirectional_2/backward_lstm_2/PartitionedCall/while/loop_body_control/_158"], "attr": {"T": {"type": "DT_FLOAT"}}}, {"name": "Func/StatefulPartitionedCall/sequential_1/bidirectional_2/backward_lstm_2/PartitionedCall/while/body/_123/input/_355", "op": "Identity", "input": ["StatefulPartitionedCall/sequential_1/bidirectional_2/backward_lstm_2/PartitionedCall/while/StatefulPartitionedCall/sequential_1/bidirectional_2/backward_lstm_2/PartitionedCall/time_switch/_149:1", "^StatefulPartitionedCall/sequential_1/bidirectional_2/backward_lstm_2/PartitionedCall/while/loop_body_control/_158"], "attr": {"T": {"type": "DT_INT32"}}}, {"name": "StatefulPartitionedCall/sequential_1/bidirectional_2/backward_lstm_2/PartitionedCall/while/body/_123/while/add_2/y", "op": "Const", "input": ["^StatefulPartitionedCall/sequential_1/bidirectional_2/backward_lstm_2/PartitionedCall/while/loop_body_control/_158"], "attr": {"value": {"tensor": {"dtype": "DT_INT32", "tensorShape": {}}}, "dtype": {"type": "DT_INT32"}}}, {"name": "StatefulPartitionedCall/sequential_1/bidirectional_2/backward_lstm_2/PartitionedCall/while/body/_123/while/add_3/y", "op": "Const", "input": ["^StatefulPartitionedCall/sequential_1/bidirectional_2/backward_lstm_2/PartitionedCall/while/loop_body_control/_158"], "attr": {"dtype": {"type": "DT_INT32"}, "value": {"tensor": {"dtype": "DT_INT32", "tensorShape": {}}}}}, {"name": "StatefulPartitionedCall/sequential_1/bidirectional_2/backward_lstm_2/PartitionedCall/while/next_iteration/_177", "op": "NextIteration", "input": ["StatefulPartitionedCall/sequential_1/bidirectional_2/backward_lstm_2/PartitionedCall/while/StatefulPartitionedCall/sequential_1/bidirectional_2/backward_lstm_2/PartitionedCall/strided_slice_switch/_153:1", "^StatefulPartitionedCall/sequential_1/bidirectional_2/backward_lstm_2/PartitionedCall/while/loop_body_control/_158"], "attr": {"T": {"type": "DT_INT32"}}}, {"name": "StatefulPartitionedCall/sequential_1/bidirectional_2/backward_lstm_2/PartitionedCall/TensorArrayV2Stack/TensorListStack", "op": "TensorListStack", "input": ["StatefulPartitionedCall/sequential_1/bidirectional_2/backward_lstm_2/PartitionedCall/while/exit/_162", "StatefulPartitionedCall/sequential_1/bidirectional_2/backward_lstm_2/PartitionedCall/TensorArrayV2Stack/TensorListStack/element_shape"], "attr": {"element_dtype": {"type": "DT_FLOAT"}, "num_elements": {"i": "-1"}}}, {"name": "StatefulPartitionedCall/sequential_1/bidirectional_2/forward_lstm_2/PartitionedCall/while/body/_63/while/TensorArrayV2Read/TensorListGetItem", "op": "TensorListGetItem", "input": ["StatefulPartitionedCall/sequential_1/bidirectional_2/forward_lstm_2/PartitionedCall/while/StatefulPartitionedCall/sequential_1/bidirectional_2/forward_lstm_2/PartitionedCall/TensorArrayUnstack/TensorListFromTensor_switch/_94:1", "Func/StatefulPartitionedCall/sequential_1/bidirectional_2/forward_lstm_2/PartitionedCall/while/body/_63/input/_318", "StatefulPartitionedCall/sequential_1/bidirectional_2/forward_lstm_2/PartitionedCall/while/body/_63/while/TensorArrayV2Read/TensorListGetItem/element_shape"], "attr": {"element_dtype": {"type": "DT_FLOAT"}}}, {"name": "StatefulPartitionedCall/sequential_1/bidirectional_2/forward_lstm_2/PartitionedCall/while/body/_63/while/add_2", "op": "AddV2", "input": ["Func/StatefulPartitionedCall/sequential_1/bidirectional_2/forward_lstm_2/PartitionedCall/while/body/_63/input/_318", "StatefulPartitionedCall/sequential_1/bidirectional_2/forward_lstm_2/PartitionedCall/while/body/_63/while/add_2/y"], "attr": {"T": {"type": "DT_INT32"}}}, {"name": "StatefulPartitionedCall/sequential_1/bidirectional_2/forward_lstm_2/PartitionedCall/while/body/_63/while/add_3", "op": "AddV2", "input": ["StatefulPartitionedCall/sequential_1/bidirectional_2/forward_lstm_2/PartitionedCall/while/StatefulPartitionedCall/sequential_1/bidirectional_2/forward_lstm_2/PartitionedCall/while/loop_counter_switch/_87:1", "StatefulPartitionedCall/sequential_1/bidirectional_2/forward_lstm_2/PartitionedCall/while/body/_63/while/add_3/y"], "attr": {"T": {"type": "DT_INT32"}}}, {"name": "StatefulPartitionedCall/sequential_1/bidirectional_2/forward_lstm_2/PartitionedCall/transpose_1", "op": "Transpose", "input": ["StatefulPartitionedCall/sequential_1/bidirectional_2/forward_lstm_2/PartitionedCall/TensorArrayV2Stack/TensorListStack", "StatefulPartitionedCall/sequential_1/bidirectional_2/forward_lstm_2/PartitionedCall/transpose_1/perm"], "attr": {"Tperm": {"type": "DT_INT32"}, "T": {"type": "DT_FLOAT"}}}, {"name": "StatefulPartitionedCall/sequential_1/bidirectional_2/backward_lstm_2/PartitionedCall/while/body/_123/while/TensorArrayV2Read/TensorListGetItem", "op": "TensorListGetItem", "input": ["StatefulPartitionedCall/sequential_1/bidirectional_2/backward_lstm_2/PartitionedCall/while/StatefulPartitionedCall/sequential_1/bidirectional_2/backward_lstm_2/PartitionedCall/TensorArrayUnstack/TensorListFromTensor_switch/_154:1", "Func/StatefulPartitionedCall/sequential_1/bidirectional_2/backward_lstm_2/PartitionedCall/while/body/_123/input/_355", "StatefulPartitionedCall/sequential_1/bidirectional_2/backward_lstm_2/PartitionedCall/while/body/_123/while/TensorArrayV2Read/TensorListGetItem/element_shape"], "attr": {"element_dtype": {"type": "DT_FLOAT"}}}, {"name": "StatefulPartitionedCall/sequential_1/bidirectional_2/backward_lstm_2/PartitionedCall/while/body/_123/while/add_2", "op": "AddV2", "input": ["Func/StatefulPartitionedCall/sequential_1/bidirectional_2/backward_lstm_2/PartitionedCall/while/body/_123/input/_355", "StatefulPartitionedCall/sequential_1/bidirectional_2/backward_lstm_2/PartitionedCall/while/body/_123/while/add_2/y"], "attr": {"T": {"type": "DT_INT32"}}}, {"name": "StatefulPartitionedCall/sequential_1/bidirectional_2/backward_lstm_2/PartitionedCall/while/body/_123/while/add_3", "op": "AddV2", "input": ["StatefulPartitionedCall/sequential_1/bidirectional_2/backward_lstm_2/PartitionedCall/while/StatefulPartitionedCall/sequential_1/bidirectional_2/backward_lstm_2/PartitionedCall/while/loop_counter_switch/_147:1", "StatefulPartitionedCall/sequential_1/bidirectional_2/backward_lstm_2/PartitionedCall/while/body/_123/while/add_3/y"], "attr": {"T": {"type": "DT_INT32"}}}, {"name": "StatefulPartitionedCall/sequential_1/bidirectional_2/backward_lstm_2/PartitionedCall/transpose_1", "op": "Transpose", "input": ["StatefulPartitionedCall/sequential_1/bidirectional_2/backward_lstm_2/PartitionedCall/TensorArrayV2Stack/TensorListStack", "StatefulPartitionedCall/sequential_1/bidirectional_2/backward_lstm_2/PartitionedCall/transpose_1/perm"], "attr": {"Tperm": {"type": "DT_INT32"}, "T": {"type": "DT_FLOAT"}}}, {"name": "StatefulPartitionedCall/sequential_1/bidirectional_2/forward_lstm_2/PartitionedCall/while/body/_63/while/MatMul", "op": "MatMul", "input": ["StatefulPartitionedCall/sequential_1/bidirectional_2/forward_lstm_2/PartitionedCall/while/body/_63/while/TensorArrayV2Read/TensorListGetItem", "StatefulPartitionedCall/sequential_1/bidirectional_2/forward_lstm_2/PartitionedCall/while/Func/StatefulPartitionedCall/sequential_1/bidirectional_2/forward_lstm_2/PartitionedCall/input/_21_switch/_95:1"], "device": "/device:CPU:0", "attr": {"transpose_b": {"b": false}, "T": {"type": "DT_FLOAT"}, "transpose_a": {"b": false}}}, {"name": "StatefulPartitionedCall/sequential_1/bidirectional_2/forward_lstm_2/PartitionedCall/while/next_iteration/_113", "op": "NextIteration", "input": ["StatefulPartitionedCall/sequential_1/bidirectional_2/forward_lstm_2/PartitionedCall/while/body/_63/while/add_2", "^StatefulPartitionedCall/sequential_1/bidirectional_2/forward_lstm_2/PartitionedCall/while/loop_body_control/_98"], "attr": {"T": {"type": "DT_INT32"}}}, {"name": "StatefulPartitionedCall/sequential_1/bidirectional_2/forward_lstm_2/PartitionedCall/while/next_iteration/_111", "op": "NextIteration", "input": ["StatefulPartitionedCall/sequential_1/bidirectional_2/forward_lstm_2/PartitionedCall/while/body/_63/while/add_3", "^StatefulPartitionedCall/sequential_1/bidirectional_2/forward_lstm_2/PartitionedCall/while/loop_body_control/_98"], "attr": {"T": {"type": "DT_INT32"}}}, {"name": "StatefulPartitionedCall/sequential_1/bidirectional_2/backward_lstm_2/PartitionedCall/while/body/_123/while/MatMul", "op": "MatMul", "input": ["StatefulPartitionedCall/sequential_1/bidirectional_2/backward_lstm_2/PartitionedCall/while/body/_123/while/TensorArrayV2Read/TensorListGetItem", "StatefulPartitionedCall/sequential_1/bidirectional_2/backward_lstm_2/PartitionedCall/while/Func/StatefulPartitionedCall/sequential_1/bidirectional_2/backward_lstm_2/PartitionedCall/input/_32_switch/_155:1"], "device": "/device:CPU:0", "attr": {"transpose_a": {"b": false}, "transpose_b": {"b": false}, "T": {"type": "DT_FLOAT"}}}, {"name": "StatefulPartitionedCall/sequential_1/bidirectional_2/backward_lstm_2/PartitionedCall/while/next_iteration/_173", "op": "NextIteration", "input": ["StatefulPartitionedCall/sequential_1/bidirectional_2/backward_lstm_2/PartitionedCall/while/body/_123/while/add_2", "^StatefulPartitionedCall/sequential_1/bidirectional_2/backward_lstm_2/PartitionedCall/while/loop_body_control/_158"], "attr": {"T": {"type": "DT_INT32"}}}, {"name": "StatefulPartitionedCall/sequential_1/bidirectional_2/backward_lstm_2/PartitionedCall/while/next_iteration/_171", "op": "NextIteration", "input": ["StatefulPartitionedCall/sequential_1/bidirectional_2/backward_lstm_2/PartitionedCall/while/body/_123/while/add_3", "^StatefulPartitionedCall/sequential_1/bidirectional_2/backward_lstm_2/PartitionedCall/while/loop_body_control/_158"], "attr": {"T": {"type": "DT_INT32"}}}, {"name": "StatefulPartitionedCall/sequential_1/bidirectional_2/ReverseV2", "op": "ReverseV2", "input": ["StatefulPartitionedCall/sequential_1/bidirectional_2/backward_lstm_2/PartitionedCall/transpose_1", "StatefulPartitionedCall/sequential_1/bidirectional_2/ReverseV2/axis"], "attr": {"T": {"type": "DT_FLOAT"}, "Tidx": {"type": "DT_INT32"}}}, {"name": "StatefulPartitionedCall/sequential_1/bidirectional_2/forward_lstm_2/PartitionedCall/while/body/_63/while/add", "op": "AddV2", "input": ["StatefulPartitionedCall/sequential_1/bidirectional_2/forward_lstm_2/PartitionedCall/while/body/_63/while/MatMul", "StatefulPartitionedCall/sequential_1/bidirectional_2/forward_lstm_2/PartitionedCall/while/body/_63/while/MatMul_1"], "attr": {"T": {"type": "DT_FLOAT"}}}, {"name": "StatefulPartitionedCall/sequential_1/bidirectional_2/backward_lstm_2/PartitionedCall/while/body/_123/while/add", "op": "AddV2", "input": ["StatefulPartitionedCall/sequential_1/bidirectional_2/backward_lstm_2/PartitionedCall/while/body/_123/while/MatMul", "StatefulPartitionedCall/sequential_1/bidirectional_2/backward_lstm_2/PartitionedCall/while/body/_123/while/MatMul_1"], "attr": {"T": {"type": "DT_FLOAT"}}}, {"name": "StatefulPartitionedCall/sequential_1/bidirectional_2/concat", "op": "ConcatV2", "input": ["StatefulPartitionedCall/sequential_1/bidirectional_2/forward_lstm_2/PartitionedCall/transpose_1", "StatefulPartitionedCall/sequential_1/bidirectional_2/ReverseV2", "StatefulPartitionedCall/sequential_1/bidirectional_2/concat/axis"], "attr": {"Tidx": {"type": "DT_INT32"}, "N": {"i": "2"}, "T": {"type": "DT_FLOAT"}}}, {"name": "StatefulPartitionedCall/sequential_1/bidirectional_2/forward_lstm_2/PartitionedCall/while/body/_63/while/BiasAdd", "op": "BiasAdd", "input": ["StatefulPartitionedCall/sequential_1/bidirectional_2/forward_lstm_2/PartitionedCall/while/body/_63/while/add", "StatefulPartitionedCall/sequential_1/bidirectional_2/forward_lstm_2/PartitionedCall/while/Func/StatefulPartitionedCall/sequential_1/bidirectional_2/forward_lstm_2/PartitionedCall/input/_23_switch/_97:1"], "attr": {"T": {"type": "DT_FLOAT"}, "data_format": {"s": "TkhXQw=="}}}, {"name": "StatefulPartitionedCall/sequential_1/bidirectional_2/backward_lstm_2/PartitionedCall/while/body/_123/while/BiasAdd", "op": "BiasAdd", "input": ["StatefulPartitionedCall/sequential_1/bidirectional_2/backward_lstm_2/PartitionedCall/while/body/_123/while/add", "StatefulPartitionedCall/sequential_1/bidirectional_2/backward_lstm_2/PartitionedCall/while/Func/StatefulPartitionedCall/sequential_1/bidirectional_2/backward_lstm_2/PartitionedCall/input/_34_switch/_157:1"], "attr": {"data_format": {"s": "TkhXQw=="}, "T": {"type": "DT_FLOAT"}}}, {"name": "StatefulPartitionedCall/sequential_1/bidirectional_3/forward_lstm_3/Shape", "op": "Shape", "input": ["StatefulPartitionedCall/sequential_1/bidirectional_2/concat"], "attr": {"out_type": {"type": "DT_INT32"}, "T": {"type": "DT_FLOAT"}}}, {"name": "StatefulPartitionedCall/sequential_1/bidirectional_3/forward_lstm_3/PartitionedCall/transpose", "op": "Transpose", "input": ["StatefulPartitionedCall/sequential_1/bidirectional_2/concat", "StatefulPartitionedCall/sequential_1/bidirectional_3/forward_lstm_3/PartitionedCall/transpose/perm"], "attr": {"T": {"type": "DT_FLOAT"}, "Tperm": {"type": "DT_INT32"}}}, {"name": "StatefulPartitionedCall/sequential_1/bidirectional_3/backward_lstm_3/Shape", "op": "Shape", "input": ["StatefulPartitionedCall/sequential_1/bidirectional_2/concat"], "attr": {"T": {"type": "DT_FLOAT"}, "out_type": {"type": "DT_INT32"}}}, {"name": "StatefulPartitionedCall/sequential_1/bidirectional_3/backward_lstm_3/PartitionedCall/transpose", "op": "Transpose", "input": ["StatefulPartitionedCall/sequential_1/bidirectional_2/concat", "StatefulPartitionedCall/sequential_1/bidirectional_3/backward_lstm_3/PartitionedCall/transpose/perm"], "attr": {"T": {"type": "DT_FLOAT"}, "Tperm": {"type": "DT_INT32"}}}, {"name": "StatefulPartitionedCall/sequential_1/bidirectional_2/forward_lstm_2/PartitionedCall/while/body/_63/while/split", "op": "Split", "input": ["StatefulPartitionedCall/sequential_1/bidirectional_2/forward_lstm_2/PartitionedCall/while/body/_63/while/split/split_dim", "StatefulPartitionedCall/sequential_1/bidirectional_2/forward_lstm_2/PartitionedCall/while/body/_63/while/BiasAdd"], "attr": {"num_split": {"i": "4"}, "T": {"type": "DT_FLOAT"}}}, {"name": "StatefulPartitionedCall/sequential_1/bidirectional_2/backward_lstm_2/PartitionedCall/while/body/_123/while/split", "op": "Split", "input": ["StatefulPartitionedCall/sequential_1/bidirectional_2/backward_lstm_2/PartitionedCall/while/body/_123/while/split/split_dim", "StatefulPartitionedCall/sequential_1/bidirectional_2/backward_lstm_2/PartitionedCall/while/body/_123/while/BiasAdd"], "attr": {"T": {"type": "DT_FLOAT"}, "num_split": {"i": "4"}}}, {"name": "StatefulPartitionedCall/sequential_1/bidirectional_3/forward_lstm_3/strided_slice", "op": "StridedSlice", "input": ["StatefulPartitionedCall/sequential_1/bidirectional_3/forward_lstm_3/Shape", "StatefulPartitionedCall/sequential_1/bidirectional_3/forward_lstm_3/strided_slice/stack", "StatefulPartitionedCall/sequential_1/bidirectional_3/forward_lstm_3/strided_slice/stack_1", "StatefulPartitionedCall/sequential_1/bidirectional_3/forward_lstm_3/strided_slice/stack_2"], "attr": {"ellipsis_mask": {"i": "0"}, "begin_mask": {"i": "0"}, "T": {"type": "DT_INT32"}, "shrink_axis_mask": {"i": "1"}, "end_mask": {"i": "0"}, "new_axis_mask": {"i": "0"}, "Index": {"type": "DT_INT32"}}}, {"name": "StatefulPartitionedCall/sequential_1/bidirectional_3/forward_lstm_3/PartitionedCall/TensorArrayUnstack/TensorListFromTensor", "op": "TensorListFromTensor", "input": ["StatefulPartitionedCall/sequential_1/bidirectional_3/forward_lstm_3/PartitionedCall/transpose", "StatefulPartitionedCall/sequential_1/bidirectional_3/forward_lstm_3/PartitionedCall/TensorArrayUnstack/TensorListFromTensor/element_shape"], "attr": {"shape_type": {"type": "DT_INT32"}, "element_dtype": {"type": "DT_FLOAT"}}}, {"name": "StatefulPartitionedCall/sequential_1/bidirectional_3/forward_lstm_3/PartitionedCall/Shape", "op": "Shape", "input": ["StatefulPartitionedCall/sequential_1/bidirectional_3/forward_lstm_3/PartitionedCall/transpose"], "attr": {"out_type": {"type": "DT_INT32"}, "T": {"type": "DT_FLOAT"}}}, {"name": "StatefulPartitionedCall/sequential_1/bidirectional_3/backward_lstm_3/strided_slice", "op": "StridedSlice", "input": ["StatefulPartitionedCall/sequential_1/bidirectional_3/backward_lstm_3/Shape", "StatefulPartitionedCall/sequential_1/bidirectional_3/backward_lstm_3/strided_slice/stack", "StatefulPartitionedCall/sequential_1/bidirectional_3/backward_lstm_3/strided_slice/stack_1", "StatefulPartitionedCall/sequential_1/bidirectional_3/backward_lstm_3/strided_slice/stack_2"], "attr": {"new_axis_mask": {"i": "0"}, "T": {"type": "DT_INT32"}, "end_mask": {"i": "0"}, "begin_mask": {"i": "0"}, "Index": {"type": "DT_INT32"}, "shrink_axis_mask": {"i": "1"}, "ellipsis_mask": {"i": "0"}}}, {"name": "StatefulPartitionedCall/sequential_1/bidirectional_3/backward_lstm_3/PartitionedCall/ReverseV2", "op": "ReverseV2", "input": ["StatefulPartitionedCall/sequential_1/bidirectional_3/backward_lstm_3/PartitionedCall/transpose", "StatefulPartitionedCall/sequential_1/bidirectional_3/backward_lstm_3/PartitionedCall/ReverseV2/axis"], "attr": {"T": {"type": "DT_FLOAT"}, "Tidx": {"type": "DT_INT32"}}}, {"name": "StatefulPartitionedCall/sequential_1/bidirectional_3/backward_lstm_3/PartitionedCall/Shape", "op": "Shape", "input": ["StatefulPartitionedCall/sequential_1/bidirectional_3/backward_lstm_3/PartitionedCall/transpose"], "attr": {"T": {"type": "DT_FLOAT"}, "out_type": {"type": "DT_INT32"}}}, {"name": "StatefulPartitionedCall/sequential_1/bidirectional_2/forward_lstm_2/PartitionedCall/while/body/_63/while/Sigmoid", "op": "Sigmoid", "input": ["StatefulPartitionedCall/sequential_1/bidirectional_2/forward_lstm_2/PartitionedCall/while/body/_63/while/split"], "attr": {"T": {"type": "DT_FLOAT"}}}, {"name": "StatefulPartitionedCall/sequential_1/bidirectional_2/forward_lstm_2/PartitionedCall/while/body/_63/while/Sigmoid_1", "op": "Sigmoid", "input": ["StatefulPartitionedCall/sequential_1/bidirectional_2/forward_lstm_2/PartitionedCall/while/body/_63/while/split:1"], "attr": {"T": {"type": "DT_FLOAT"}}}, {"name": "StatefulPartitionedCall/sequential_1/bidirectional_2/forward_lstm_2/PartitionedCall/while/body/_63/while/Tanh", "op": "Tanh", "input": ["StatefulPartitionedCall/sequential_1/bidirectional_2/forward_lstm_2/PartitionedCall/while/body/_63/while/split:2"], "attr": {"T": {"type": "DT_FLOAT"}}}, {"name": "StatefulPartitionedCall/sequential_1/bidirectional_2/forward_lstm_2/PartitionedCall/while/body/_63/while/Sigmoid_2", "op": "Sigmoid", "input": ["StatefulPartitionedCall/sequential_1/bidirectional_2/forward_lstm_2/PartitionedCall/while/body/_63/while/split:3"], "attr": {"T": {"type": "DT_FLOAT"}}}, {"name": "StatefulPartitionedCall/sequential_1/bidirectional_2/backward_lstm_2/PartitionedCall/while/body/_123/while/Sigmoid", "op": "Sigmoid", "input": ["StatefulPartitionedCall/sequential_1/bidirectional_2/backward_lstm_2/PartitionedCall/while/body/_123/while/split"], "attr": {"T": {"type": "DT_FLOAT"}}}, {"name": "StatefulPartitionedCall/sequential_1/bidirectional_2/backward_lstm_2/PartitionedCall/while/body/_123/while/Sigmoid_1", "op": "Sigmoid", "input": ["StatefulPartitionedCall/sequential_1/bidirectional_2/backward_lstm_2/PartitionedCall/while/body/_123/while/split:1"], "attr": {"T": {"type": "DT_FLOAT"}}}, {"name": "StatefulPartitionedCall/sequential_1/bidirectional_2/backward_lstm_2/PartitionedCall/while/body/_123/while/Tanh", "op": "Tanh", "input": ["StatefulPartitionedCall/sequential_1/bidirectional_2/backward_lstm_2/PartitionedCall/while/body/_123/while/split:2"], "attr": {"T": {"type": "DT_FLOAT"}}}, {"name": "StatefulPartitionedCall/sequential_1/bidirectional_2/backward_lstm_2/PartitionedCall/while/body/_123/while/Sigmoid_2", "op": "Sigmoid", "input": ["StatefulPartitionedCall/sequential_1/bidirectional_2/backward_lstm_2/PartitionedCall/while/body/_123/while/split:3"], "attr": {"T": {"type": "DT_FLOAT"}}}, {"name": "StatefulPartitionedCall/sequential_1/bidirectional_3/forward_lstm_3/zeros_1/packed", "op": "Pack", "input": ["StatefulPartitionedCall/sequential_1/bidirectional_3/forward_lstm_3/strided_slice", "StatefulPartitionedCall/sequential_1/bidirectional_3/forward_lstm_3/zeros_1/packed/1"], "attr": {"T": {"type": "DT_INT32"}, "N": {"i": "2"}, "axis": {"i": "0"}}}, {"name": "StatefulPartitionedCall/sequential_1/bidirectional_3/forward_lstm_3/zeros/packed", "op": "Pack", "input": ["StatefulPartitionedCall/sequential_1/bidirectional_3/forward_lstm_3/strided_slice", "StatefulPartitionedCall/sequential_1/bidirectional_3/forward_lstm_3/zeros/packed/1"], "attr": {"axis": {"i": "0"}, "T": {"type": "DT_INT32"}, "N": {"i": "2"}}}, {"name": "StatefulPartitionedCall/sequential_1/bidirectional_3/forward_lstm_3/PartitionedCall/while/enter/_191", "op": "Enter", "input": ["StatefulPartitionedCall/sequential_1/bidirectional_3/forward_lstm_3/PartitionedCall/TensorArrayUnstack/TensorListFromTensor"], "attr": {"frame_name": {"s": "U3RhdGVmdWxQYXJ0aXRpb25lZENhbGwvc2VxdWVudGlhbF8xL2JpZGlyZWN0aW9uYWxfMy9mb3J3YXJkX2xzdG1fMy9QYXJ0aXRpb25lZENhbGwvd2hpbGU="}, "parallel_iterations": {"i": "32"}, "T": {"type": "DT_VARIANT"}, "is_constant": {"b": false}}}, {"name": "StatefulPartitionedCall/sequential_1/bidirectional_3/forward_lstm_3/PartitionedCall/strided_slice", "op": "StridedSlice", "input": ["StatefulPartitionedCall/sequential_1/bidirectional_3/forward_lstm_3/PartitionedCall/Shape", "StatefulPartitionedCall/sequential_1/bidirectional_3/forward_lstm_3/PartitionedCall/strided_slice/stack", "StatefulPartitionedCall/sequential_1/bidirectional_3/forward_lstm_3/PartitionedCall/strided_slice/stack_1", "StatefulPartitionedCall/sequential_1/bidirectional_3/forward_lstm_3/PartitionedCall/strided_slice/stack_2"], "attr": {"ellipsis_mask": {"i": "0"}, "new_axis_mask": {"i": "0"}, "end_mask": {"i": "0"}, "shrink_axis_mask": {"i": "1"}, "begin_mask": {"i": "0"}, "T": {"type": "DT_INT32"}, "Index": {"type": "DT_INT32"}}}, {"name": "StatefulPartitionedCall/sequential_1/bidirectional_3/backward_lstm_3/zeros_1/packed", "op": "Pack", "input": ["StatefulPartitionedCall/sequential_1/bidirectional_3/backward_lstm_3/strided_slice", "StatefulPartitionedCall/sequential_1/bidirectional_3/backward_lstm_3/zeros_1/packed/1"], "attr": {"axis": {"i": "0"}, "T": {"type": "DT_INT32"}, "N": {"i": "2"}}}, {"name": "StatefulPartitionedCall/sequential_1/bidirectional_3/backward_lstm_3/zeros/packed", "op": "Pack", "input": ["StatefulPartitionedCall/sequential_1/bidirectional_3/backward_lstm_3/strided_slice", "StatefulPartitionedCall/sequential_1/bidirectional_3/backward_lstm_3/zeros/packed/1"], "attr": {"T": {"type": "DT_INT32"}, "axis": {"i": "0"}, "N": {"i": "2"}}}, {"name": "StatefulPartitionedCall/sequential_1/bidirectional_3/backward_lstm_3/PartitionedCall/TensorArrayUnstack/TensorListFromTensor", "op": "TensorListFromTensor", "input": ["StatefulPartitionedCall/sequential_1/bidirectional_3/backward_lstm_3/PartitionedCall/ReverseV2", "StatefulPartitionedCall/sequential_1/bidirectional_3/backward_lstm_3/PartitionedCall/TensorArrayUnstack/TensorListFromTensor/element_shape"], "attr": {"shape_type": {"type": "DT_INT32"}, "element_dtype": {"type": "DT_FLOAT"}}}, {"name": "StatefulPartitionedCall/sequential_1/bidirectional_3/backward_lstm_3/PartitionedCall/strided_slice", "op": "StridedSlice", "input": ["StatefulPartitionedCall/sequential_1/bidirectional_3/backward_lstm_3/PartitionedCall/Shape", "StatefulPartitionedCall/sequential_1/bidirectional_3/backward_lstm_3/PartitionedCall/strided_slice/stack", "StatefulPartitionedCall/sequential_1/bidirectional_3/backward_lstm_3/PartitionedCall/strided_slice/stack_1", "StatefulPartitionedCall/sequential_1/bidirectional_3/backward_lstm_3/PartitionedCall/strided_slice/stack_2"], "attr": {"begin_mask": {"i": "0"}, "end_mask": {"i": "0"}, "shrink_axis_mask": {"i": "1"}, "new_axis_mask": {"i": "0"}, "Index": {"type": "DT_INT32"}, "T": {"type": "DT_INT32"}, "ellipsis_mask": {"i": "0"}}}, {"name": "StatefulPartitionedCall/sequential_1/bidirectional_2/forward_lstm_2/PartitionedCall/while/body/_63/while/mul", "op": "Mul", "input": ["StatefulPartitionedCall/sequential_1/bidirectional_2/forward_lstm_2/PartitionedCall/while/body/_63/while/Sigmoid_1", "StatefulPartitionedCall/sequential_1/bidirectional_2/forward_lstm_2/PartitionedCall/while/Func/StatefulPartitionedCall/sequential_1/bidirectional_2/forward_lstm_2/PartitionedCall/input/_20_switch/_92:1"], "attr": {"T": {"type": "DT_FLOAT"}}}, {"name": "StatefulPartitionedCall/sequential_1/bidirectional_2/forward_lstm_2/PartitionedCall/while/body/_63/while/mul_1", "op": "Mul", "input": ["StatefulPartitionedCall/sequential_1/bidirectional_2/forward_lstm_2/PartitionedCall/while/body/_63/while/Sigmoid", "StatefulPartitionedCall/sequential_1/bidirectional_2/forward_lstm_2/PartitionedCall/while/body/_63/while/Tanh"], "attr": {"T": {"type": "DT_FLOAT"}}}, {"name": "StatefulPartitionedCall/sequential_1/bidirectional_2/backward_lstm_2/PartitionedCall/while/body/_123/while/mul", "op": "Mul", "input": ["StatefulPartitionedCall/sequential_1/bidirectional_2/backward_lstm_2/PartitionedCall/while/body/_123/while/Sigmoid_1", "StatefulPartitionedCall/sequential_1/bidirectional_2/backward_lstm_2/PartitionedCall/while/Func/StatefulPartitionedCall/sequential_1/bidirectional_2/backward_lstm_2/PartitionedCall/input/_31_switch/_152:1"], "attr": {"T": {"type": "DT_FLOAT"}}}, {"name": "StatefulPartitionedCall/sequential_1/bidirectional_2/backward_lstm_2/PartitionedCall/while/body/_123/while/mul_1", "op": "Mul", "input": ["StatefulPartitionedCall/sequential_1/bidirectional_2/backward_lstm_2/PartitionedCall/while/body/_123/while/Sigmoid", "StatefulPartitionedCall/sequential_1/bidirectional_2/backward_lstm_2/PartitionedCall/while/body/_123/while/Tanh"], "attr": {"T": {"type": "DT_FLOAT"}}}, {"name": "StatefulPartitionedCall/sequential_1/bidirectional_3/forward_lstm_3/zeros_1", "op": "Fill", "input": ["StatefulPartitionedCall/sequential_1/bidirectional_3/forward_lstm_3/zeros_1/packed", "StatefulPartitionedCall/sequential_1/bidirectional_3/forward_lstm_3/zeros_1/Const"], "attr": {"index_type": {"type": "DT_INT32"}, "T": {"type": "DT_FLOAT"}}}, {"name": "StatefulPartitionedCall/sequential_1/bidirectional_3/forward_lstm_3/zeros", "op": "Fill", "input": ["StatefulPartitionedCall/sequential_1/bidirectional_3/forward_lstm_3/zeros/packed", "StatefulPartitionedCall/sequential_1/bidirectional_3/forward_lstm_3/zeros/Const"], "attr": {"index_type": {"type": "DT_INT32"}, "T": {"type": "DT_FLOAT"}}}, {"name": "StatefulPartitionedCall/sequential_1/bidirectional_3/forward_lstm_3/PartitionedCall/while/merge/_202", "op": "Merge", "input": ["StatefulPartitionedCall/sequential_1/bidirectional_3/forward_lstm_3/PartitionedCall/while/enter/_191", "StatefulPartitionedCall/sequential_1/bidirectional_3/forward_lstm_3/PartitionedCall/while/next_iteration/_238"], "attr": {"T": {"type": "DT_VARIANT"}, "N": {"i": "2"}}}, {"name": "StatefulPartitionedCall/sequential_1/bidirectional_3/forward_lstm_3/PartitionedCall/TensorArrayV2_1", "op": "TensorListReserve", "input": ["StatefulPartitionedCall/sequential_1/bidirectional_3/forward_lstm_3/PartitionedCall/TensorArrayV2_1/element_shape", "StatefulPartitionedCall/sequential_1/bidirectional_3/forward_lstm_3/PartitionedCall/strided_slice"], "attr": {"shape_type": {"type": "DT_INT32"}, "element_dtype": {"type": "DT_FLOAT"}}}, {"name": "StatefulPartitionedCall/sequential_1/bidirectional_3/forward_lstm_3/PartitionedCall/while/enter/_190", "op": "Enter", "input": ["StatefulPartitionedCall/sequential_1/bidirectional_3/forward_lstm_3/PartitionedCall/strided_slice"], "attr": {"is_constant": {"b": false}, "T": {"type": "DT_INT32"}, "frame_name": {"s": "U3RhdGVmdWxQYXJ0aXRpb25lZENhbGwvc2VxdWVudGlhbF8xL2JpZGlyZWN0aW9uYWxfMy9mb3J3YXJkX2xzdG1fMy9QYXJ0aXRpb25lZENhbGwvd2hpbGU="}, "parallel_iterations": {"i": "32"}}}, {"name": "StatefulPartitionedCall/sequential_1/bidirectional_3/backward_lstm_3/zeros_1", "op": "Fill", "input": ["StatefulPartitionedCall/sequential_1/bidirectional_3/backward_lstm_3/zeros_1/packed", "StatefulPartitionedCall/sequential_1/bidirectional_3/backward_lstm_3/zeros_1/Const"], "attr": {"T": {"type": "DT_FLOAT"}, "index_type": {"type": "DT_INT32"}}}, {"name": "StatefulPartitionedCall/sequential_1/bidirectional_3/backward_lstm_3/zeros", "op": "Fill", "input": ["StatefulPartitionedCall/sequential_1/bidirectional_3/backward_lstm_3/zeros/packed", "StatefulPartitionedCall/sequential_1/bidirectional_3/backward_lstm_3/zeros/Const"], "attr": {"T": {"type": "DT_FLOAT"}, "index_type": {"type": "DT_INT32"}}}, {"name": "StatefulPartitionedCall/sequential_1/bidirectional_3/backward_lstm_3/PartitionedCall/while/enter/_251", "op": "Enter", "input": ["StatefulPartitionedCall/sequential_1/bidirectional_3/backward_lstm_3/PartitionedCall/TensorArrayUnstack/TensorListFromTensor"], "attr": {"parallel_iterations": {"i": "32"}, "T": {"type": "DT_VARIANT"}, "frame_name": {"s": "U3RhdGVmdWxQYXJ0aXRpb25lZENhbGwvc2VxdWVudGlhbF8xL2JpZGlyZWN0aW9uYWxfMy9iYWNrd2FyZF9sc3RtXzMvUGFydGl0aW9uZWRDYWxsL3doaWxl"}, "is_constant": {"b": false}}}, {"name": "StatefulPartitionedCall/sequential_1/bidirectional_3/backward_lstm_3/PartitionedCall/TensorArrayV2_1", "op": "TensorListReserve", "input": ["StatefulPartitionedCall/sequential_1/bidirectional_3/backward_lstm_3/PartitionedCall/TensorArrayV2_1/element_shape", "StatefulPartitionedCall/sequential_1/bidirectional_3/backward_lstm_3/PartitionedCall/strided_slice"], "attr": {"shape_type": {"type": "DT_INT32"}, "element_dtype": {"type": "DT_FLOAT"}}}, {"name": "StatefulPartitionedCall/sequential_1/bidirectional_3/backward_lstm_3/PartitionedCall/while/enter/_250", "op": "Enter", "input": ["StatefulPartitionedCall/sequential_1/bidirectional_3/backward_lstm_3/PartitionedCall/strided_slice"], "attr": {"parallel_iterations": {"i": "32"}, "frame_name": {"s": "U3RhdGVmdWxQYXJ0aXRpb25lZENhbGwvc2VxdWVudGlhbF8xL2JpZGlyZWN0aW9uYWxfMy9iYWNrd2FyZF9sc3RtXzMvUGFydGl0aW9uZWRDYWxsL3doaWxl"}, "is_constant": {"b": false}, "T": {"type": "DT_INT32"}}}, {"name": "StatefulPartitionedCall/sequential_1/bidirectional_2/forward_lstm_2/PartitionedCall/while/body/_63/while/add_1", "op": "AddV2", "input": ["StatefulPartitionedCall/sequential_1/bidirectional_2/forward_lstm_2/PartitionedCall/while/body/_63/while/mul", "StatefulPartitionedCall/sequential_1/bidirectional_2/forward_lstm_2/PartitionedCall/while/body/_63/while/mul_1"], "attr": {"T": {"type": "DT_FLOAT"}}}, {"name": "StatefulPartitionedCall/sequential_1/bidirectional_2/backward_lstm_2/PartitionedCall/while/body/_123/while/add_1", "op": "AddV2", "input": ["StatefulPartitionedCall/sequential_1/bidirectional_2/backward_lstm_2/PartitionedCall/while/body/_123/while/mul", "StatefulPartitionedCall/sequential_1/bidirectional_2/backward_lstm_2/PartitionedCall/while/body/_123/while/mul_1"], "attr": {"T": {"type": "DT_FLOAT"}}}, {"name": "StatefulPartitionedCall/sequential_1/bidirectional_3/forward_lstm_3/PartitionedCall/while/enter/_189", "op": "Enter", "input": ["StatefulPartitionedCall/sequential_1/bidirectional_3/forward_lstm_3/zeros_1"], "attr": {"parallel_iterations": {"i": "32"}, "is_constant": {"b": false}, "T": {"type": "DT_FLOAT"}, "frame_name": {"s": "U3RhdGVmdWxQYXJ0aXRpb25lZENhbGwvc2VxdWVudGlhbF8xL2JpZGlyZWN0aW9uYWxfMy9mb3J3YXJkX2xzdG1fMy9QYXJ0aXRpb25lZENhbGwvd2hpbGU="}}}, {"name": "StatefulPartitionedCall/sequential_1/bidirectional_3/forward_lstm_3/PartitionedCall/while/enter/_188", "op": "Enter", "input": ["StatefulPartitionedCall/sequential_1/bidirectional_3/forward_lstm_3/zeros"], "attr": {"frame_name": {"s": "U3RhdGVmdWxQYXJ0aXRpb25lZENhbGwvc2VxdWVudGlhbF8xL2JpZGlyZWN0aW9uYWxfMy9mb3J3YXJkX2xzdG1fMy9QYXJ0aXRpb25lZENhbGwvd2hpbGU="}, "T": {"type": "DT_FLOAT"}, "parallel_iterations": {"i": "32"}, "is_constant": {"b": false}}}, {"name": "StatefulPartitionedCall/sequential_1/bidirectional_3/forward_lstm_3/PartitionedCall/while/enter/_187", "op": "Enter", "input": ["StatefulPartitionedCall/sequential_1/bidirectional_3/forward_lstm_3/PartitionedCall/TensorArrayV2_1"], "attr": {"frame_name": {"s": "U3RhdGVmdWxQYXJ0aXRpb25lZENhbGwvc2VxdWVudGlhbF8xL2JpZGlyZWN0aW9uYWxfMy9mb3J3YXJkX2xzdG1fMy9QYXJ0aXRpb25lZENhbGwvd2hpbGU="}, "T": {"type": "DT_VARIANT"}, "is_constant": {"b": false}, "parallel_iterations": {"i": "32"}}}, {"name": "StatefulPartitionedCall/sequential_1/bidirectional_3/forward_lstm_3/PartitionedCall/while/merge/_201", "op": "Merge", "input": ["StatefulPartitionedCall/sequential_1/bidirectional_3/forward_lstm_3/PartitionedCall/while/enter/_190", "StatefulPartitionedCall/sequential_1/bidirectional_3/forward_lstm_3/PartitionedCall/while/next_iteration/_237"], "attr": {"T": {"type": "DT_INT32"}, "N": {"i": "2"}}}, {"name": "StatefulPartitionedCall/sequential_1/bidirectional_3/backward_lstm_3/PartitionedCall/while/enter/_249", "op": "Enter", "input": ["StatefulPartitionedCall/sequential_1/bidirectional_3/backward_lstm_3/zeros_1"], "attr": {"parallel_iterations": {"i": "32"}, "frame_name": {"s": "U3RhdGVmdWxQYXJ0aXRpb25lZENhbGwvc2VxdWVudGlhbF8xL2JpZGlyZWN0aW9uYWxfMy9iYWNrd2FyZF9sc3RtXzMvUGFydGl0aW9uZWRDYWxsL3doaWxl"}, "is_constant": {"b": false}, "T": {"type": "DT_FLOAT"}}}, {"name": "StatefulPartitionedCall/sequential_1/bidirectional_3/backward_lstm_3/PartitionedCall/while/enter/_248", "op": "Enter", "input": ["StatefulPartitionedCall/sequential_1/bidirectional_3/backward_lstm_3/zeros"], "attr": {"frame_name": {"s": "U3RhdGVmdWxQYXJ0aXRpb25lZENhbGwvc2VxdWVudGlhbF8xL2JpZGlyZWN0aW9uYWxfMy9iYWNrd2FyZF9sc3RtXzMvUGFydGl0aW9uZWRDYWxsL3doaWxl"}, "T": {"type": "DT_FLOAT"}, "is_constant": {"b": false}, "parallel_iterations": {"i": "32"}}}, {"name": "StatefulPartitionedCall/sequential_1/bidirectional_3/backward_lstm_3/PartitionedCall/while/merge/_262", "op": "Merge", "input": ["StatefulPartitionedCall/sequential_1/bidirectional_3/backward_lstm_3/PartitionedCall/while/enter/_251", "StatefulPartitionedCall/sequential_1/bidirectional_3/backward_lstm_3/PartitionedCall/while/next_iteration/_298"], "attr": {"T": {"type": "DT_VARIANT"}, "N": {"i": "2"}}}, {"name": "StatefulPartitionedCall/sequential_1/bidirectional_3/backward_lstm_3/PartitionedCall/while/enter/_247", "op": "Enter", "input": ["StatefulPartitionedCall/sequential_1/bidirectional_3/backward_lstm_3/PartitionedCall/TensorArrayV2_1"], "attr": {"is_constant": {"b": false}, "frame_name": {"s": "U3RhdGVmdWxQYXJ0aXRpb25lZENhbGwvc2VxdWVudGlhbF8xL2JpZGlyZWN0aW9uYWxfMy9iYWNrd2FyZF9sc3RtXzMvUGFydGl0aW9uZWRDYWxsL3doaWxl"}, "parallel_iterations": {"i": "32"}, "T": {"type": "DT_VARIANT"}}}, {"name": "StatefulPartitionedCall/sequential_1/bidirectional_3/backward_lstm_3/PartitionedCall/while/merge/_261", "op": "Merge", "input": ["StatefulPartitionedCall/sequential_1/bidirectional_3/backward_lstm_3/PartitionedCall/while/enter/_250", "StatefulPartitionedCall/sequential_1/bidirectional_3/backward_lstm_3/PartitionedCall/while/next_iteration/_297"], "attr": {"N": {"i": "2"}, "T": {"type": "DT_INT32"}}}, {"name": "StatefulPartitionedCall/sequential_1/bidirectional_2/forward_lstm_2/PartitionedCall/while/body/_63/while/Tanh_1", "op": "Tanh", "input": ["StatefulPartitionedCall/sequential_1/bidirectional_2/forward_lstm_2/PartitionedCall/while/body/_63/while/add_1"], "attr": {"T": {"type": "DT_FLOAT"}}}, {"name": "StatefulPartitionedCall/sequential_1/bidirectional_2/forward_lstm_2/PartitionedCall/while/next_iteration/_116", "op": "NextIteration", "input": ["StatefulPartitionedCall/sequential_1/bidirectional_2/forward_lstm_2/PartitionedCall/while/body/_63/while/add_1", "^StatefulPartitionedCall/sequential_1/bidirectional_2/forward_lstm_2/PartitionedCall/while/loop_body_control/_98"], "attr": {"T": {"type": "DT_FLOAT"}}}, {"name": "StatefulPartitionedCall/sequential_1/bidirectional_2/backward_lstm_2/PartitionedCall/while/body/_123/while/Tanh_1", "op": "Tanh", "input": ["StatefulPartitionedCall/sequential_1/bidirectional_2/backward_lstm_2/PartitionedCall/while/body/_123/while/add_1"], "attr": {"T": {"type": "DT_FLOAT"}}}, {"name": "StatefulPartitionedCall/sequential_1/bidirectional_2/backward_lstm_2/PartitionedCall/while/next_iteration/_176", "op": "NextIteration", "input": ["StatefulPartitionedCall/sequential_1/bidirectional_2/backward_lstm_2/PartitionedCall/while/body/_123/while/add_1", "^StatefulPartitionedCall/sequential_1/bidirectional_2/backward_lstm_2/PartitionedCall/while/loop_body_control/_158"], "attr": {"T": {"type": "DT_FLOAT"}}}, {"name": "StatefulPartitionedCall/sequential_1/bidirectional_3/forward_lstm_3/PartitionedCall/while/merge/_200", "op": "Merge", "input": ["StatefulPartitionedCall/sequential_1/bidirectional_3/forward_lstm_3/PartitionedCall/while/enter/_189", "StatefulPartitionedCall/sequential_1/bidirectional_3/forward_lstm_3/PartitionedCall/while/next_iteration/_236"], "attr": {"N": {"i": "2"}, "T": {"type": "DT_FLOAT"}}}, {"name": "StatefulPartitionedCall/sequential_1/bidirectional_3/forward_lstm_3/PartitionedCall/while/merge/_199", "op": "Merge", "input": ["StatefulPartitionedCall/sequential_1/bidirectional_3/forward_lstm_3/PartitionedCall/while/enter/_188", "StatefulPartitionedCall/sequential_1/bidirectional_3/forward_lstm_3/PartitionedCall/while/next_iteration/_235"], "attr": {"N": {"i": "2"}, "T": {"type": "DT_FLOAT"}}}, {"name": "StatefulPartitionedCall/sequential_1/bidirectional_3/forward_lstm_3/PartitionedCall/while/merge/_198", "op": "Merge", "input": ["StatefulPartitionedCall/sequential_1/bidirectional_3/forward_lstm_3/PartitionedCall/while/enter/_187", "StatefulPartitionedCall/sequential_1/bidirectional_3/forward_lstm_3/PartitionedCall/while/next_iteration/_234"], "attr": {"T": {"type": "DT_VARIANT"}, "N": {"i": "2"}}}, {"name": "StatefulPartitionedCall/sequential_1/bidirectional_3/forward_lstm_3/PartitionedCall/while/cond/_182/while/Less", "op": "Less", "input": ["StatefulPartitionedCall/sequential_1/bidirectional_3/forward_lstm_3/PartitionedCall/while/merge/_197", "StatefulPartitionedCall/sequential_1/bidirectional_3/forward_lstm_3/PartitionedCall/while/merge/_201", "^StatefulPartitionedCall/sequential_1/bidirectional_3/forward_lstm_3/PartitionedCall/while/merge/_195"], "attr": {"T": {"type": "DT_INT32"}}}, {"name": "StatefulPartitionedCall/sequential_1/bidirectional_3/backward_lstm_3/PartitionedCall/while/merge/_260", "op": "Merge", "input": ["StatefulPartitionedCall/sequential_1/bidirectional_3/backward_lstm_3/PartitionedCall/while/enter/_249", "StatefulPartitionedCall/sequential_1/bidirectional_3/backward_lstm_3/PartitionedCall/while/next_iteration/_296"], "attr": {"T": {"type": "DT_FLOAT"}, "N": {"i": "2"}}}, {"name": "StatefulPartitionedCall/sequential_1/bidirectional_3/backward_lstm_3/PartitionedCall/while/merge/_259", "op": "Merge", "input": ["StatefulPartitionedCall/sequential_1/bidirectional_3/backward_lstm_3/PartitionedCall/while/enter/_248", "StatefulPartitionedCall/sequential_1/bidirectional_3/backward_lstm_3/PartitionedCall/while/next_iteration/_295"], "attr": {"T": {"type": "DT_FLOAT"}, "N": {"i": "2"}}}, {"name": "StatefulPartitionedCall/sequential_1/bidirectional_3/backward_lstm_3/PartitionedCall/while/merge/_258", "op": "Merge", "input": ["StatefulPartitionedCall/sequential_1/bidirectional_3/backward_lstm_3/PartitionedCall/while/enter/_247", "StatefulPartitionedCall/sequential_1/bidirectional_3/backward_lstm_3/PartitionedCall/while/next_iteration/_294"], "attr": {"T": {"type": "DT_VARIANT"}, "N": {"i": "2"}}}, {"name": "StatefulPartitionedCall/sequential_1/bidirectional_3/backward_lstm_3/PartitionedCall/while/cond/_242/while/Less", "op": "Less", "input": ["StatefulPartitionedCall/sequential_1/bidirectional_3/backward_lstm_3/PartitionedCall/while/merge/_257", "StatefulPartitionedCall/sequential_1/bidirectional_3/backward_lstm_3/PartitionedCall/while/merge/_261", "^StatefulPartitionedCall/sequential_1/bidirectional_3/backward_lstm_3/PartitionedCall/while/merge/_255"], "attr": {"T": {"type": "DT_INT32"}}}, {"name": "StatefulPartitionedCall/sequential_1/bidirectional_2/forward_lstm_2/PartitionedCall/while/body/_63/while/mul_2", "op": "Mul", "input": ["StatefulPartitionedCall/sequential_1/bidirectional_2/forward_lstm_2/PartitionedCall/while/body/_63/while/Sigmoid_2", "StatefulPartitionedCall/sequential_1/bidirectional_2/forward_lstm_2/PartitionedCall/while/body/_63/while/Tanh_1"], "attr": {"T": {"type": "DT_FLOAT"}}}, {"name": "StatefulPartitionedCall/sequential_1/bidirectional_2/backward_lstm_2/PartitionedCall/while/body/_123/while/mul_2", "op": "Mul", "input": ["StatefulPartitionedCall/sequential_1/bidirectional_2/backward_lstm_2/PartitionedCall/while/body/_123/while/Sigmoid_2", "StatefulPartitionedCall/sequential_1/bidirectional_2/backward_lstm_2/PartitionedCall/while/body/_123/while/Tanh_1"], "attr": {"T": {"type": "DT_FLOAT"}}}, {"name": "StatefulPartitionedCall/sequential_1/bidirectional_3/forward_lstm_3/PartitionedCall/while/LoopCond/_206", "op": "LoopCond", "input": ["StatefulPartitionedCall/sequential_1/bidirectional_3/forward_lstm_3/PartitionedCall/while/cond/_182/while/Less"]}, {"name": "StatefulPartitionedCall/sequential_1/bidirectional_3/backward_lstm_3/PartitionedCall/while/LoopCond/_266", "op": "LoopCond", "input": ["StatefulPartitionedCall/sequential_1/bidirectional_3/backward_lstm_3/PartitionedCall/while/cond/_242/while/Less"]}, {"name": "StatefulPartitionedCall/sequential_1/bidirectional_2/forward_lstm_2/PartitionedCall/while/next_iteration/_115", "op": "NextIteration", "input": ["StatefulPartitionedCall/sequential_1/bidirectional_2/forward_lstm_2/PartitionedCall/while/body/_63/while/mul_2", "^StatefulPartitionedCall/sequential_1/bidirectional_2/forward_lstm_2/PartitionedCall/while/loop_body_control/_98"], "attr": {"T": {"type": "DT_FLOAT"}}}, {"name": "StatefulPartitionedCall/sequential_1/bidirectional_2/forward_lstm_2/PartitionedCall/while/body/_63/while/TensorArrayV2Write/TensorListSetItem", "op": "TensorListSetItem", "input": ["StatefulPartitionedCall/sequential_1/bidirectional_2/forward_lstm_2/PartitionedCall/while/StatefulPartitionedCall/sequential_1/bidirectional_2/forward_lstm_2/PartitionedCall/TensorArrayV2_1_switch/_90:1", "Func/StatefulPartitionedCall/sequential_1/bidirectional_2/forward_lstm_2/PartitionedCall/while/body/_63/input/_318", "StatefulPartitionedCall/sequential_1/bidirectional_2/forward_lstm_2/PartitionedCall/while/body/_63/while/mul_2"], "attr": {"element_dtype": {"type": "DT_FLOAT"}}}, {"name": "StatefulPartitionedCall/sequential_1/bidirectional_2/backward_lstm_2/PartitionedCall/while/next_iteration/_175", "op": "NextIteration", "input": ["StatefulPartitionedCall/sequential_1/bidirectional_2/backward_lstm_2/PartitionedCall/while/body/_123/while/mul_2", "^StatefulPartitionedCall/sequential_1/bidirectional_2/backward_lstm_2/PartitionedCall/while/loop_body_control/_158"], "attr": {"T": {"type": "DT_FLOAT"}}}, {"name": "StatefulPartitionedCall/sequential_1/bidirectional_2/backward_lstm_2/PartitionedCall/while/body/_123/while/TensorArrayV2Write/TensorListSetItem", "op": "TensorListSetItem", "input": ["StatefulPartitionedCall/sequential_1/bidirectional_2/backward_lstm_2/PartitionedCall/while/StatefulPartitionedCall/sequential_1/bidirectional_2/backward_lstm_2/PartitionedCall/TensorArrayV2_1_switch/_150:1", "Func/StatefulPartitionedCall/sequential_1/bidirectional_2/backward_lstm_2/PartitionedCall/while/body/_123/input/_355", "StatefulPartitionedCall/sequential_1/bidirectional_2/backward_lstm_2/PartitionedCall/while/body/_123/while/mul_2"], "attr": {"element_dtype": {"type": "DT_FLOAT"}}}, {"name": "StatefulPartitionedCall/sequential_1/bidirectional_3/forward_lstm_3/PartitionedCall/while/Func/StatefulPartitionedCall/sequential_1/bidirectional_3/forward_lstm_3/PartitionedCall/input/_42_switch/_212", "op": "Switch", "input": ["StatefulPartitionedCall/sequential_1/bidirectional_3/forward_lstm_3/PartitionedCall/while/merge/_200", "StatefulPartitionedCall/sequential_1/bidirectional_3/forward_lstm_3/PartitionedCall/while/LoopCond/_206"], "attr": {"T": {"type": "DT_FLOAT"}}}, {"name": "StatefulPartitionedCall/sequential_1/bidirectional_3/forward_lstm_3/PartitionedCall/while/StatefulPartitionedCall/sequential_1/bidirectional_3/forward_lstm_3/PartitionedCall/TensorArrayUnstack/TensorListFromTensor_switch/_214", "op": "Switch", "input": ["StatefulPartitionedCall/sequential_1/bidirectional_3/forward_lstm_3/PartitionedCall/while/merge/_202", "StatefulPartitionedCall/sequential_1/bidirectional_3/forward_lstm_3/PartitionedCall/while/LoopCond/_206"], "attr": {"T": {"type": "DT_VARIANT"}}}, {"name": "StatefulPartitionedCall/sequential_1/bidirectional_3/forward_lstm_3/PartitionedCall/while/Func/StatefulPartitionedCall/sequential_1/bidirectional_3/forward_lstm_3/PartitionedCall/input/_43_switch/_215", "op": "Switch", "input": ["StatefulPartitionedCall/sequential_1/bidirectional_3/forward_lstm_3/PartitionedCall/while/merge/_203", "StatefulPartitionedCall/sequential_1/bidirectional_3/forward_lstm_3/PartitionedCall/while/LoopCond/_206"], "attr": {"T": {"type": "DT_FLOAT"}}}, {"name": "StatefulPartitionedCall/sequential_1/bidirectional_3/forward_lstm_3/PartitionedCall/while/Func/StatefulPartitionedCall/sequential_1/bidirectional_3/forward_lstm_3/PartitionedCall/input/_41_switch/_211", "op": "Switch", "input": ["StatefulPartitionedCall/sequential_1/bidirectional_3/forward_lstm_3/PartitionedCall/while/merge/_199", "StatefulPartitionedCall/sequential_1/bidirectional_3/forward_lstm_3/PartitionedCall/while/LoopCond/_206"], "attr": {"T": {"type": "DT_FLOAT"}}}, {"name": "StatefulPartitionedCall/sequential_1/bidirectional_3/forward_lstm_3/PartitionedCall/while/Func/StatefulPartitionedCall/sequential_1/bidirectional_3/forward_lstm_3/PartitionedCall/input/_44_switch/_216", "op": "Switch", "input": ["StatefulPartitionedCall/sequential_1/bidirectional_3/forward_lstm_3/PartitionedCall/while/merge/_204", "StatefulPartitionedCall/sequential_1/bidirectional_3/forward_lstm_3/PartitionedCall/while/LoopCond/_206"], "attr": {"T": {"type": "DT_FLOAT"}}}, {"name": "StatefulPartitionedCall/sequential_1/bidirectional_3/forward_lstm_3/PartitionedCall/while/Func/StatefulPartitionedCall/sequential_1/bidirectional_3/forward_lstm_3/PartitionedCall/input/_45_switch/_217", "op": "Switch", "input": ["StatefulPartitionedCall/sequential_1/bidirectional_3/forward_lstm_3/PartitionedCall/while/merge/_205", "StatefulPartitionedCall/sequential_1/bidirectional_3/forward_lstm_3/PartitionedCall/while/LoopCond/_206"], "attr": {"T": {"type": "DT_FLOAT"}}}, {"name": "StatefulPartitionedCall/sequential_1/bidirectional_3/forward_lstm_3/PartitionedCall/while/StatefulPartitionedCall/sequential_1/bidirectional_3/forward_lstm_3/PartitionedCall/time_switch/_209", "op": "Switch", "input": ["StatefulPartitionedCall/sequential_1/bidirectional_3/forward_lstm_3/PartitionedCall/while/merge/_197", "StatefulPartitionedCall/sequential_1/bidirectional_3/forward_lstm_3/PartitionedCall/while/LoopCond/_206"], "attr": {"T": {"type": "DT_INT32"}}}, {"name": "StatefulPartitionedCall/sequential_1/bidirectional_3/forward_lstm_3/PartitionedCall/while/StatefulPartitionedCall/sequential_1/bidirectional_3/forward_lstm_3/PartitionedCall/while/loop_counter_switch/_207", "op": "Switch", "input": ["StatefulPartitionedCall/sequential_1/bidirectional_3/forward_lstm_3/PartitionedCall/while/merge/_195", "StatefulPartitionedCall/sequential_1/bidirectional_3/forward_lstm_3/PartitionedCall/while/LoopCond/_206"], "attr": {"T": {"type": "DT_INT32"}}}, {"name": "StatefulPartitionedCall/sequential_1/bidirectional_3/forward_lstm_3/PartitionedCall/while/StatefulPartitionedCall/sequential_1/bidirectional_3/forward_lstm_3/PartitionedCall/TensorArrayV2_1_switch/_210", "op": "Switch", "input": ["StatefulPartitionedCall/sequential_1/bidirectional_3/forward_lstm_3/PartitionedCall/while/merge/_198", "StatefulPartitionedCall/sequential_1/bidirectional_3/forward_lstm_3/PartitionedCall/while/LoopCond/_206"], "attr": {"T": {"type": "DT_VARIANT"}}}, {"name": "StatefulPartitionedCall/sequential_1/bidirectional_3/forward_lstm_3/PartitionedCall/while/StatefulPartitionedCall/sequential_1/bidirectional_3/forward_lstm_3/PartitionedCall/strided_slice_switch/_213", "op": "Switch", "input": ["StatefulPartitionedCall/sequential_1/bidirectional_3/forward_lstm_3/PartitionedCall/while/merge/_201", "StatefulPartitionedCall/sequential_1/bidirectional_3/forward_lstm_3/PartitionedCall/while/LoopCond/_206"], "attr": {"T": {"type": "DT_INT32"}}}, {"name": "StatefulPartitionedCall/sequential_1/bidirectional_3/backward_lstm_3/PartitionedCall/while/Func/StatefulPartitionedCall/sequential_1/bidirectional_3/backward_lstm_3/PartitionedCall/input/_53_switch/_272", "op": "Switch", "input": ["StatefulPartitionedCall/sequential_1/bidirectional_3/backward_lstm_3/PartitionedCall/while/merge/_260", "StatefulPartitionedCall/sequential_1/bidirectional_3/backward_lstm_3/PartitionedCall/while/LoopCond/_266"], "attr": {"T": {"type": "DT_FLOAT"}}}, {"name": "StatefulPartitionedCall/sequential_1/bidirectional_3/backward_lstm_3/PartitionedCall/while/StatefulPartitionedCall/sequential_1/bidirectional_3/backward_lstm_3/PartitionedCall/TensorArrayUnstack/TensorListFromTensor_switch/_274", "op": "Switch", "input": ["StatefulPartitionedCall/sequential_1/bidirectional_3/backward_lstm_3/PartitionedCall/while/merge/_262", "StatefulPartitionedCall/sequential_1/bidirectional_3/backward_lstm_3/PartitionedCall/while/LoopCond/_266"], "attr": {"T": {"type": "DT_VARIANT"}}}, {"name": "StatefulPartitionedCall/sequential_1/bidirectional_3/backward_lstm_3/PartitionedCall/while/Func/StatefulPartitionedCall/sequential_1/bidirectional_3/backward_lstm_3/PartitionedCall/input/_54_switch/_275", "op": "Switch", "input": ["StatefulPartitionedCall/sequential_1/bidirectional_3/backward_lstm_3/PartitionedCall/while/merge/_263", "StatefulPartitionedCall/sequential_1/bidirectional_3/backward_lstm_3/PartitionedCall/while/LoopCond/_266"], "attr": {"T": {"type": "DT_FLOAT"}}}, {"name": "StatefulPartitionedCall/sequential_1/bidirectional_3/backward_lstm_3/PartitionedCall/while/Func/StatefulPartitionedCall/sequential_1/bidirectional_3/backward_lstm_3/PartitionedCall/input/_52_switch/_271", "op": "Switch", "input": ["StatefulPartitionedCall/sequential_1/bidirectional_3/backward_lstm_3/PartitionedCall/while/merge/_259", "StatefulPartitionedCall/sequential_1/bidirectional_3/backward_lstm_3/PartitionedCall/while/LoopCond/_266"], "attr": {"T": {"type": "DT_FLOAT"}}}, {"name": "StatefulPartitionedCall/sequential_1/bidirectional_3/backward_lstm_3/PartitionedCall/while/Func/StatefulPartitionedCall/sequential_1/bidirectional_3/backward_lstm_3/PartitionedCall/input/_55_switch/_276", "op": "Switch", "input": ["StatefulPartitionedCall/sequential_1/bidirectional_3/backward_lstm_3/PartitionedCall/while/merge/_264", "StatefulPartitionedCall/sequential_1/bidirectional_3/backward_lstm_3/PartitionedCall/while/LoopCond/_266"], "attr": {"T": {"type": "DT_FLOAT"}}}, {"name": "StatefulPartitionedCall/sequential_1/bidirectional_3/backward_lstm_3/PartitionedCall/while/Func/StatefulPartitionedCall/sequential_1/bidirectional_3/backward_lstm_3/PartitionedCall/input/_56_switch/_277", "op": "Switch", "input": ["StatefulPartitionedCall/sequential_1/bidirectional_3/backward_lstm_3/PartitionedCall/while/merge/_265", "StatefulPartitionedCall/sequential_1/bidirectional_3/backward_lstm_3/PartitionedCall/while/LoopCond/_266"], "attr": {"T": {"type": "DT_FLOAT"}}}, {"name": "StatefulPartitionedCall/sequential_1/bidirectional_3/backward_lstm_3/PartitionedCall/while/StatefulPartitionedCall/sequential_1/bidirectional_3/backward_lstm_3/PartitionedCall/time_switch/_269", "op": "Switch", "input": ["StatefulPartitionedCall/sequential_1/bidirectional_3/backward_lstm_3/PartitionedCall/while/merge/_257", "StatefulPartitionedCall/sequential_1/bidirectional_3/backward_lstm_3/PartitionedCall/while/LoopCond/_266"], "attr": {"T": {"type": "DT_INT32"}}}, {"name": "StatefulPartitionedCall/sequential_1/bidirectional_3/backward_lstm_3/PartitionedCall/while/StatefulPartitionedCall/sequential_1/bidirectional_3/backward_lstm_3/PartitionedCall/while/loop_counter_switch/_267", "op": "Switch", "input": ["StatefulPartitionedCall/sequential_1/bidirectional_3/backward_lstm_3/PartitionedCall/while/merge/_255", "StatefulPartitionedCall/sequential_1/bidirectional_3/backward_lstm_3/PartitionedCall/while/LoopCond/_266"], "attr": {"T": {"type": "DT_INT32"}}}, {"name": "StatefulPartitionedCall/sequential_1/bidirectional_3/backward_lstm_3/PartitionedCall/while/StatefulPartitionedCall/sequential_1/bidirectional_3/backward_lstm_3/PartitionedCall/TensorArrayV2_1_switch/_270", "op": "Switch", "input": ["StatefulPartitionedCall/sequential_1/bidirectional_3/backward_lstm_3/PartitionedCall/while/merge/_258", "StatefulPartitionedCall/sequential_1/bidirectional_3/backward_lstm_3/PartitionedCall/while/LoopCond/_266"], "attr": {"T": {"type": "DT_VARIANT"}}}, {"name": "StatefulPartitionedCall/sequential_1/bidirectional_3/backward_lstm_3/PartitionedCall/while/StatefulPartitionedCall/sequential_1/bidirectional_3/backward_lstm_3/PartitionedCall/strided_slice_switch/_273", "op": "Switch", "input": ["StatefulPartitionedCall/sequential_1/bidirectional_3/backward_lstm_3/PartitionedCall/while/merge/_261", "StatefulPartitionedCall/sequential_1/bidirectional_3/backward_lstm_3/PartitionedCall/while/LoopCond/_266"], "attr": {"T": {"type": "DT_INT32"}}}, {"name": "StatefulPartitionedCall/sequential_1/bidirectional_2/forward_lstm_2/PartitionedCall/while/next_iteration/_114", "op": "NextIteration", "input": ["StatefulPartitionedCall/sequential_1/bidirectional_2/forward_lstm_2/PartitionedCall/while/body/_63/while/TensorArrayV2Write/TensorListSetItem", "^StatefulPartitionedCall/sequential_1/bidirectional_2/forward_lstm_2/PartitionedCall/while/loop_body_control/_98"], "attr": {"T": {"type": "DT_VARIANT"}}}, {"name": "StatefulPartitionedCall/sequential_1/bidirectional_2/backward_lstm_2/PartitionedCall/while/next_iteration/_174", "op": "NextIteration", "input": ["StatefulPartitionedCall/sequential_1/bidirectional_2/backward_lstm_2/PartitionedCall/while/body/_123/while/TensorArrayV2Write/TensorListSetItem", "^StatefulPartitionedCall/sequential_1/bidirectional_2/backward_lstm_2/PartitionedCall/while/loop_body_control/_158"], "attr": {"T": {"type": "DT_VARIANT"}}}, {"name": "StatefulPartitionedCall/sequential_1/bidirectional_3/forward_lstm_3/PartitionedCall/while/loop_body_control/_218", "op": "Identity", "input": ["StatefulPartitionedCall/sequential_1/bidirectional_3/forward_lstm_3/PartitionedCall/while/StatefulPartitionedCall/sequential_1/bidirectional_3/forward_lstm_3/PartitionedCall/while/loop_counter_switch/_207:1"], "attr": {"T": {"type": "DT_INT32"}}}, {"name": "StatefulPartitionedCall/sequential_1/bidirectional_3/forward_lstm_3/PartitionedCall/while/exit/_222", "op": "Exit", "input": ["StatefulPartitionedCall/sequential_1/bidirectional_3/forward_lstm_3/PartitionedCall/while/StatefulPartitionedCall/sequential_1/bidirectional_3/forward_lstm_3/PartitionedCall/TensorArrayV2_1_switch/_210"], "attr": {"T": {"type": "DT_VARIANT"}}}, {"name": "StatefulPartitionedCall/sequential_1/bidirectional_3/backward_lstm_3/PartitionedCall/while/loop_body_control/_278", "op": "Identity", "input": ["StatefulPartitionedCall/sequential_1/bidirectional_3/backward_lstm_3/PartitionedCall/while/StatefulPartitionedCall/sequential_1/bidirectional_3/backward_lstm_3/PartitionedCall/while/loop_counter_switch/_267:1"], "attr": {"T": {"type": "DT_INT32"}}}, {"name": "StatefulPartitionedCall/sequential_1/bidirectional_3/backward_lstm_3/PartitionedCall/while/exit/_282", "op": "Exit", "input": ["StatefulPartitionedCall/sequential_1/bidirectional_3/backward_lstm_3/PartitionedCall/while/StatefulPartitionedCall/sequential_1/bidirectional_3/backward_lstm_3/PartitionedCall/TensorArrayV2_1_switch/_270"], "attr": {"T": {"type": "DT_VARIANT"}}}, {"name": "StatefulPartitionedCall/sequential_1/bidirectional_3/forward_lstm_3/PartitionedCall/while/body/_183/while/split/split_dim", "op": "Const", "input": ["^StatefulPartitionedCall/sequential_1/bidirectional_3/forward_lstm_3/PartitionedCall/while/loop_body_control/_218"], "attr": {"dtype": {"type": "DT_INT32"}, "value": {"tensor": {"dtype": "DT_INT32", "tensorShape": {}}}}}, {"name": "StatefulPartitionedCall/sequential_1/bidirectional_3/forward_lstm_3/PartitionedCall/while/next_iteration/_238", "op": "NextIteration", "input": ["StatefulPartitionedCall/sequential_1/bidirectional_3/forward_lstm_3/PartitionedCall/while/StatefulPartitionedCall/sequential_1/bidirectional_3/forward_lstm_3/PartitionedCall/TensorArrayUnstack/TensorListFromTensor_switch/_214:1", "^StatefulPartitionedCall/sequential_1/bidirectional_3/forward_lstm_3/PartitionedCall/while/loop_body_control/_218"], "attr": {"T": {"type": "DT_VARIANT"}}}, {"name": "StatefulPartitionedCall/sequential_1/bidirectional_3/forward_lstm_3/PartitionedCall/while/body/_183/while/TensorArrayV2Read/TensorListGetItem/element_shape", "op": "Const", "input": ["^StatefulPartitionedCall/sequential_1/bidirectional_3/forward_lstm_3/PartitionedCall/while/loop_body_control/_218"], "attr": {"dtype": {"type": "DT_INT32"}, "value": {"tensor": {"dtype": "DT_INT32", "tensorShape": {"dim": [{"size": "2"}]}}}}}, {"name": "StatefulPartitionedCall/sequential_1/bidirectional_3/forward_lstm_3/PartitionedCall/while/next_iteration/_239", "op": "NextIteration", "input": ["StatefulPartitionedCall/sequential_1/bidirectional_3/forward_lstm_3/PartitionedCall/while/Func/StatefulPartitionedCall/sequential_1/bidirectional_3/forward_lstm_3/PartitionedCall/input/_43_switch/_215:1", "^StatefulPartitionedCall/sequential_1/bidirectional_3/forward_lstm_3/PartitionedCall/while/loop_body_control/_218"], "attr": {"T": {"type": "DT_FLOAT"}}}, {"name": "StatefulPartitionedCall/sequential_1/bidirectional_3/forward_lstm_3/PartitionedCall/while/next_iteration/_240", "op": "NextIteration", "input": ["StatefulPartitionedCall/sequential_1/bidirectional_3/forward_lstm_3/PartitionedCall/while/Func/StatefulPartitionedCall/sequential_1/bidirectional_3/forward_lstm_3/PartitionedCall/input/_44_switch/_216:1", "^StatefulPartitionedCall/sequential_1/bidirectional_3/forward_lstm_3/PartitionedCall/while/loop_body_control/_218"], "attr": {"T": {"type": "DT_FLOAT"}}}, {"name": "StatefulPartitionedCall/sequential_1/bidirectional_3/forward_lstm_3/PartitionedCall/while/body/_183/while/MatMul_1", "op": "MatMul", "input": ["StatefulPartitionedCall/sequential_1/bidirectional_3/forward_lstm_3/PartitionedCall/while/Func/StatefulPartitionedCall/sequential_1/bidirectional_3/forward_lstm_3/PartitionedCall/input/_41_switch/_211:1", "StatefulPartitionedCall/sequential_1/bidirectional_3/forward_lstm_3/PartitionedCall/while/Func/StatefulPartitionedCall/sequential_1/bidirectional_3/forward_lstm_3/PartitionedCall/input/_44_switch/_216:1", "^StatefulPartitionedCall/sequential_1/bidirectional_3/forward_lstm_3/PartitionedCall/while/loop_body_control/_218"], "device": "/device:CPU:0", "attr": {"T": {"type": "DT_FLOAT"}, "transpose_a": {"b": false}, "transpose_b": {"b": false}}}, {"name": "StatefulPartitionedCall/sequential_1/bidirectional_3/forward_lstm_3/PartitionedCall/while/next_iteration/_241", "op": "NextIteration", "input": ["StatefulPartitionedCall/sequential_1/bidirectional_3/forward_lstm_3/PartitionedCall/while/Func/StatefulPartitionedCall/sequential_1/bidirectional_3/forward_lstm_3/PartitionedCall/input/_45_switch/_217:1", "^StatefulPartitionedCall/sequential_1/bidirectional_3/forward_lstm_3/PartitionedCall/while/loop_body_control/_218"], "attr": {"T": {"type": "DT_FLOAT"}}}, {"name": "Func/StatefulPartitionedCall/sequential_1/bidirectional_3/forward_lstm_3/PartitionedCall/while/body/_183/input/_392", "op": "Identity", "input": ["StatefulPartitionedCall/sequential_1/bidirectional_3/forward_lstm_3/PartitionedCall/while/StatefulPartitionedCall/sequential_1/bidirectional_3/forward_lstm_3/PartitionedCall/time_switch/_209:1", "^StatefulPartitionedCall/sequential_1/bidirectional_3/forward_lstm_3/PartitionedCall/while/loop_body_control/_218"], "attr": {"T": {"type": "DT_INT32"}}}, {"name": "StatefulPartitionedCall/sequential_1/bidirectional_3/forward_lstm_3/PartitionedCall/while/body/_183/while/add_2/y", "op": "Const", "input": ["^StatefulPartitionedCall/sequential_1/bidirectional_3/forward_lstm_3/PartitionedCall/while/loop_body_control/_218"], "attr": {"value": {"tensor": {"dtype": "DT_INT32", "tensorShape": {}}}, "dtype": {"type": "DT_INT32"}}}, {"name": "StatefulPartitionedCall/sequential_1/bidirectional_3/forward_lstm_3/PartitionedCall/while/body/_183/while/add_3/y", "op": "Const", "input": ["^StatefulPartitionedCall/sequential_1/bidirectional_3/forward_lstm_3/PartitionedCall/while/loop_body_control/_218"], "attr": {"value": {"tensor": {"dtype": "DT_INT32", "tensorShape": {}}}, "dtype": {"type": "DT_INT32"}}}, {"name": "StatefulPartitionedCall/sequential_1/bidirectional_3/forward_lstm_3/PartitionedCall/while/next_iteration/_237", "op": "NextIteration", "input": ["StatefulPartitionedCall/sequential_1/bidirectional_3/forward_lstm_3/PartitionedCall/while/StatefulPartitionedCall/sequential_1/bidirectional_3/forward_lstm_3/PartitionedCall/strided_slice_switch/_213:1", "^StatefulPartitionedCall/sequential_1/bidirectional_3/forward_lstm_3/PartitionedCall/while/loop_body_control/_218"], "attr": {"T": {"type": "DT_INT32"}}}, {"name": "StatefulPartitionedCall/sequential_1/bidirectional_3/forward_lstm_3/PartitionedCall/TensorArrayV2Stack/TensorListStack", "op": "TensorListStack", "input": ["StatefulPartitionedCall/sequential_1/bidirectional_3/forward_lstm_3/PartitionedCall/while/exit/_222", "StatefulPartitionedCall/sequential_1/bidirectional_3/forward_lstm_3/PartitionedCall/TensorArrayV2Stack/TensorListStack/element_shape"], "attr": {"element_dtype": {"type": "DT_FLOAT"}, "num_elements": {"i": "-1"}}}, {"name": "StatefulPartitionedCall/sequential_1/bidirectional_3/backward_lstm_3/PartitionedCall/while/body/_243/while/split/split_dim", "op": "Const", "input": ["^StatefulPartitionedCall/sequential_1/bidirectional_3/backward_lstm_3/PartitionedCall/while/loop_body_control/_278"], "attr": {"value": {"tensor": {"dtype": "DT_INT32", "tensorShape": {}}}, "dtype": {"type": "DT_INT32"}}}, {"name": "StatefulPartitionedCall/sequential_1/bidirectional_3/backward_lstm_3/PartitionedCall/while/next_iteration/_298", "op": "NextIteration", "input": ["StatefulPartitionedCall/sequential_1/bidirectional_3/backward_lstm_3/PartitionedCall/while/StatefulPartitionedCall/sequential_1/bidirectional_3/backward_lstm_3/PartitionedCall/TensorArrayUnstack/TensorListFromTensor_switch/_274:1", "^StatefulPartitionedCall/sequential_1/bidirectional_3/backward_lstm_3/PartitionedCall/while/loop_body_control/_278"], "attr": {"T": {"type": "DT_VARIANT"}}}, {"name": "StatefulPartitionedCall/sequential_1/bidirectional_3/backward_lstm_3/PartitionedCall/while/body/_243/while/TensorArrayV2Read/TensorListGetItem/element_shape", "op": "Const", "input": ["^StatefulPartitionedCall/sequential_1/bidirectional_3/backward_lstm_3/PartitionedCall/while/loop_body_control/_278"], "attr": {"dtype": {"type": "DT_INT32"}, "value": {"tensor": {"dtype": "DT_INT32", "tensorShape": {"dim": [{"size": "2"}]}}}}}, {"name": "StatefulPartitionedCall/sequential_1/bidirectional_3/backward_lstm_3/PartitionedCall/while/next_iteration/_299", "op": "NextIteration", "input": ["StatefulPartitionedCall/sequential_1/bidirectional_3/backward_lstm_3/PartitionedCall/while/Func/StatefulPartitionedCall/sequential_1/bidirectional_3/backward_lstm_3/PartitionedCall/input/_54_switch/_275:1", "^StatefulPartitionedCall/sequential_1/bidirectional_3/backward_lstm_3/PartitionedCall/while/loop_body_control/_278"], "attr": {"T": {"type": "DT_FLOAT"}}}, {"name": "StatefulPartitionedCall/sequential_1/bidirectional_3/backward_lstm_3/PartitionedCall/while/next_iteration/_300", "op": "NextIteration", "input": ["StatefulPartitionedCall/sequential_1/bidirectional_3/backward_lstm_3/PartitionedCall/while/Func/StatefulPartitionedCall/sequential_1/bidirectional_3/backward_lstm_3/PartitionedCall/input/_55_switch/_276:1", "^StatefulPartitionedCall/sequential_1/bidirectional_3/backward_lstm_3/PartitionedCall/while/loop_body_control/_278"], "attr": {"T": {"type": "DT_FLOAT"}}}, {"name": "StatefulPartitionedCall/sequential_1/bidirectional_3/backward_lstm_3/PartitionedCall/while/body/_243/while/MatMul_1", "op": "MatMul", "input": ["StatefulPartitionedCall/sequential_1/bidirectional_3/backward_lstm_3/PartitionedCall/while/Func/StatefulPartitionedCall/sequential_1/bidirectional_3/backward_lstm_3/PartitionedCall/input/_52_switch/_271:1", "StatefulPartitionedCall/sequential_1/bidirectional_3/backward_lstm_3/PartitionedCall/while/Func/StatefulPartitionedCall/sequential_1/bidirectional_3/backward_lstm_3/PartitionedCall/input/_55_switch/_276:1", "^StatefulPartitionedCall/sequential_1/bidirectional_3/backward_lstm_3/PartitionedCall/while/loop_body_control/_278"], "device": "/device:CPU:0", "attr": {"T": {"type": "DT_FLOAT"}, "transpose_a": {"b": false}, "transpose_b": {"b": false}}}, {"name": "StatefulPartitionedCall/sequential_1/bidirectional_3/backward_lstm_3/PartitionedCall/while/next_iteration/_301", "op": "NextIteration", "input": ["StatefulPartitionedCall/sequential_1/bidirectional_3/backward_lstm_3/PartitionedCall/while/Func/StatefulPartitionedCall/sequential_1/bidirectional_3/backward_lstm_3/PartitionedCall/input/_56_switch/_277:1", "^StatefulPartitionedCall/sequential_1/bidirectional_3/backward_lstm_3/PartitionedCall/while/loop_body_control/_278"], "attr": {"T": {"type": "DT_FLOAT"}}}, {"name": "Func/StatefulPartitionedCall/sequential_1/bidirectional_3/backward_lstm_3/PartitionedCall/while/body/_243/input/_429", "op": "Identity", "input": ["StatefulPartitionedCall/sequential_1/bidirectional_3/backward_lstm_3/PartitionedCall/while/StatefulPartitionedCall/sequential_1/bidirectional_3/backward_lstm_3/PartitionedCall/time_switch/_269:1", "^StatefulPartitionedCall/sequential_1/bidirectional_3/backward_lstm_3/PartitionedCall/while/loop_body_control/_278"], "attr": {"T": {"type": "DT_INT32"}}}, {"name": "StatefulPartitionedCall/sequential_1/bidirectional_3/backward_lstm_3/PartitionedCall/while/body/_243/while/add_2/y", "op": "Const", "input": ["^StatefulPartitionedCall/sequential_1/bidirectional_3/backward_lstm_3/PartitionedCall/while/loop_body_control/_278"], "attr": {"dtype": {"type": "DT_INT32"}, "value": {"tensor": {"dtype": "DT_INT32", "tensorShape": {}}}}}, {"name": "StatefulPartitionedCall/sequential_1/bidirectional_3/backward_lstm_3/PartitionedCall/while/body/_243/while/add_3/y", "op": "Const", "input": ["^StatefulPartitionedCall/sequential_1/bidirectional_3/backward_lstm_3/PartitionedCall/while/loop_body_control/_278"], "attr": {"dtype": {"type": "DT_INT32"}, "value": {"tensor": {"dtype": "DT_INT32", "tensorShape": {}}}}}, {"name": "StatefulPartitionedCall/sequential_1/bidirectional_3/backward_lstm_3/PartitionedCall/while/next_iteration/_297", "op": "NextIteration", "input": ["StatefulPartitionedCall/sequential_1/bidirectional_3/backward_lstm_3/PartitionedCall/while/StatefulPartitionedCall/sequential_1/bidirectional_3/backward_lstm_3/PartitionedCall/strided_slice_switch/_273:1", "^StatefulPartitionedCall/sequential_1/bidirectional_3/backward_lstm_3/PartitionedCall/while/loop_body_control/_278"], "attr": {"T": {"type": "DT_INT32"}}}, {"name": "StatefulPartitionedCall/sequential_1/bidirectional_3/backward_lstm_3/PartitionedCall/TensorArrayV2Stack/TensorListStack", "op": "TensorListStack", "input": ["StatefulPartitionedCall/sequential_1/bidirectional_3/backward_lstm_3/PartitionedCall/while/exit/_282", "StatefulPartitionedCall/sequential_1/bidirectional_3/backward_lstm_3/PartitionedCall/TensorArrayV2Stack/TensorListStack/element_shape"], "attr": {"num_elements": {"i": "-1"}, "element_dtype": {"type": "DT_FLOAT"}}}, {"name": "StatefulPartitionedCall/sequential_1/bidirectional_3/forward_lstm_3/PartitionedCall/while/body/_183/while/TensorArrayV2Read/TensorListGetItem", "op": "TensorListGetItem", "input": ["StatefulPartitionedCall/sequential_1/bidirectional_3/forward_lstm_3/PartitionedCall/while/StatefulPartitionedCall/sequential_1/bidirectional_3/forward_lstm_3/PartitionedCall/TensorArrayUnstack/TensorListFromTensor_switch/_214:1", "Func/StatefulPartitionedCall/sequential_1/bidirectional_3/forward_lstm_3/PartitionedCall/while/body/_183/input/_392", "StatefulPartitionedCall/sequential_1/bidirectional_3/forward_lstm_3/PartitionedCall/while/body/_183/while/TensorArrayV2Read/TensorListGetItem/element_shape"], "attr": {"element_dtype": {"type": "DT_FLOAT"}}}, {"name": "StatefulPartitionedCall/sequential_1/bidirectional_3/forward_lstm_3/PartitionedCall/while/body/_183/while/add_2", "op": "AddV2", "input": ["Func/StatefulPartitionedCall/sequential_1/bidirectional_3/forward_lstm_3/PartitionedCall/while/body/_183/input/_392", "StatefulPartitionedCall/sequential_1/bidirectional_3/forward_lstm_3/PartitionedCall/while/body/_183/while/add_2/y"], "attr": {"T": {"type": "DT_INT32"}}}, {"name": "StatefulPartitionedCall/sequential_1/bidirectional_3/forward_lstm_3/PartitionedCall/while/body/_183/while/add_3", "op": "AddV2", "input": ["StatefulPartitionedCall/sequential_1/bidirectional_3/forward_lstm_3/PartitionedCall/while/StatefulPartitionedCall/sequential_1/bidirectional_3/forward_lstm_3/PartitionedCall/while/loop_counter_switch/_207:1", "StatefulPartitionedCall/sequential_1/bidirectional_3/forward_lstm_3/PartitionedCall/while/body/_183/while/add_3/y"], "attr": {"T": {"type": "DT_INT32"}}}, {"name": "StatefulPartitionedCall/sequential_1/bidirectional_3/forward_lstm_3/PartitionedCall/strided_slice_2", "op": "StridedSlice", "input": ["StatefulPartitionedCall/sequential_1/bidirectional_3/forward_lstm_3/PartitionedCall/TensorArrayV2Stack/TensorListStack", "StatefulPartitionedCall/sequential_1/bidirectional_3/forward_lstm_3/PartitionedCall/strided_slice_2/stack", "StatefulPartitionedCall/sequential_1/bidirectional_3/forward_lstm_3/PartitionedCall/strided_slice_2/stack_1", "StatefulPartitionedCall/sequential_1/bidirectional_3/forward_lstm_3/PartitionedCall/strided_slice_2/stack_2"], "attr": {"new_axis_mask": {"i": "0"}, "ellipsis_mask": {"i": "0"}, "begin_mask": {"i": "0"}, "end_mask": {"i": "0"}, "T": {"type": "DT_FLOAT"}, "shrink_axis_mask": {"i": "1"}, "Index": {"type": "DT_INT32"}}}, {"name": "StatefulPartitionedCall/sequential_1/bidirectional_3/backward_lstm_3/PartitionedCall/while/body/_243/while/TensorArrayV2Read/TensorListGetItem", "op": "TensorListGetItem", "input": ["StatefulPartitionedCall/sequential_1/bidirectional_3/backward_lstm_3/PartitionedCall/while/StatefulPartitionedCall/sequential_1/bidirectional_3/backward_lstm_3/PartitionedCall/TensorArrayUnstack/TensorListFromTensor_switch/_274:1", "Func/StatefulPartitionedCall/sequential_1/bidirectional_3/backward_lstm_3/PartitionedCall/while/body/_243/input/_429", "StatefulPartitionedCall/sequential_1/bidirectional_3/backward_lstm_3/PartitionedCall/while/body/_243/while/TensorArrayV2Read/TensorListGetItem/element_shape"], "attr": {"element_dtype": {"type": "DT_FLOAT"}}}, {"name": "StatefulPartitionedCall/sequential_1/bidirectional_3/backward_lstm_3/PartitionedCall/while/body/_243/while/add_2", "op": "AddV2", "input": ["Func/StatefulPartitionedCall/sequential_1/bidirectional_3/backward_lstm_3/PartitionedCall/while/body/_243/input/_429", "StatefulPartitionedCall/sequential_1/bidirectional_3/backward_lstm_3/PartitionedCall/while/body/_243/while/add_2/y"], "attr": {"T": {"type": "DT_INT32"}}}, {"name": "StatefulPartitionedCall/sequential_1/bidirectional_3/backward_lstm_3/PartitionedCall/while/body/_243/while/add_3", "op": "AddV2", "input": ["StatefulPartitionedCall/sequential_1/bidirectional_3/backward_lstm_3/PartitionedCall/while/StatefulPartitionedCall/sequential_1/bidirectional_3/backward_lstm_3/PartitionedCall/while/loop_counter_switch/_267:1", "StatefulPartitionedCall/sequential_1/bidirectional_3/backward_lstm_3/PartitionedCall/while/body/_243/while/add_3/y"], "attr": {"T": {"type": "DT_INT32"}}}, {"name": "StatefulPartitionedCall/sequential_1/bidirectional_3/backward_lstm_3/PartitionedCall/strided_slice_2", "op": "StridedSlice", "input": ["StatefulPartitionedCall/sequential_1/bidirectional_3/backward_lstm_3/PartitionedCall/TensorArrayV2Stack/TensorListStack", "StatefulPartitionedCall/sequential_1/bidirectional_3/backward_lstm_3/PartitionedCall/strided_slice_2/stack", "StatefulPartitionedCall/sequential_1/bidirectional_3/backward_lstm_3/PartitionedCall/strided_slice_2/stack_1", "StatefulPartitionedCall/sequential_1/bidirectional_3/backward_lstm_3/PartitionedCall/strided_slice_2/stack_2"], "attr": {"new_axis_mask": {"i": "0"}, "shrink_axis_mask": {"i": "1"}, "begin_mask": {"i": "0"}, "T": {"type": "DT_FLOAT"}, "ellipsis_mask": {"i": "0"}, "end_mask": {"i": "0"}, "Index": {"type": "DT_INT32"}}}, {"name": "StatefulPartitionedCall/sequential_1/bidirectional_3/forward_lstm_3/PartitionedCall/while/body/_183/while/MatMul", "op": "MatMul", "input": ["StatefulPartitionedCall/sequential_1/bidirectional_3/forward_lstm_3/PartitionedCall/while/body/_183/while/TensorArrayV2Read/TensorListGetItem", "StatefulPartitionedCall/sequential_1/bidirectional_3/forward_lstm_3/PartitionedCall/while/Func/StatefulPartitionedCall/sequential_1/bidirectional_3/forward_lstm_3/PartitionedCall/input/_43_switch/_215:1"], "device": "/device:CPU:0", "attr": {"T": {"type": "DT_FLOAT"}, "transpose_a": {"b": false}, "transpose_b": {"b": false}}}, {"name": "StatefulPartitionedCall/sequential_1/bidirectional_3/forward_lstm_3/PartitionedCall/while/next_iteration/_233", "op": "NextIteration", "input": ["StatefulPartitionedCall/sequential_1/bidirectional_3/forward_lstm_3/PartitionedCall/while/body/_183/while/add_2", "^StatefulPartitionedCall/sequential_1/bidirectional_3/forward_lstm_3/PartitionedCall/while/loop_body_control/_218"], "attr": {"T": {"type": "DT_INT32"}}}, {"name": "StatefulPartitionedCall/sequential_1/bidirectional_3/forward_lstm_3/PartitionedCall/while/next_iteration/_231", "op": "NextIteration", "input": ["StatefulPartitionedCall/sequential_1/bidirectional_3/forward_lstm_3/PartitionedCall/while/body/_183/while/add_3", "^StatefulPartitionedCall/sequential_1/bidirectional_3/forward_lstm_3/PartitionedCall/while/loop_body_control/_218"], "attr": {"T": {"type": "DT_INT32"}}}, {"name": "StatefulPartitionedCall/sequential_1/bidirectional_3/backward_lstm_3/PartitionedCall/while/body/_243/while/MatMul", "op": "MatMul", "input": ["StatefulPartitionedCall/sequential_1/bidirectional_3/backward_lstm_3/PartitionedCall/while/body/_243/while/TensorArrayV2Read/TensorListGetItem", "StatefulPartitionedCall/sequential_1/bidirectional_3/backward_lstm_3/PartitionedCall/while/Func/StatefulPartitionedCall/sequential_1/bidirectional_3/backward_lstm_3/PartitionedCall/input/_54_switch/_275:1"], "device": "/device:CPU:0", "attr": {"T": {"type": "DT_FLOAT"}, "transpose_a": {"b": false}, "transpose_b": {"b": false}}}, {"name": "StatefulPartitionedCall/sequential_1/bidirectional_3/backward_lstm_3/PartitionedCall/while/next_iteration/_293", "op": "NextIteration", "input": ["StatefulPartitionedCall/sequential_1/bidirectional_3/backward_lstm_3/PartitionedCall/while/body/_243/while/add_2", "^StatefulPartitionedCall/sequential_1/bidirectional_3/backward_lstm_3/PartitionedCall/while/loop_body_control/_278"], "attr": {"T": {"type": "DT_INT32"}}}, {"name": "StatefulPartitionedCall/sequential_1/bidirectional_3/backward_lstm_3/PartitionedCall/while/next_iteration/_291", "op": "NextIteration", "input": ["StatefulPartitionedCall/sequential_1/bidirectional_3/backward_lstm_3/PartitionedCall/while/body/_243/while/add_3", "^StatefulPartitionedCall/sequential_1/bidirectional_3/backward_lstm_3/PartitionedCall/while/loop_body_control/_278"], "attr": {"T": {"type": "DT_INT32"}}}, {"name": "StatefulPartitionedCall/sequential_1/bidirectional_3/concat", "op": "ConcatV2", "input": ["StatefulPartitionedCall/sequential_1/bidirectional_3/forward_lstm_3/PartitionedCall/strided_slice_2", "StatefulPartitionedCall/sequential_1/bidirectional_3/backward_lstm_3/PartitionedCall/strided_slice_2", "StatefulPartitionedCall/sequential_1/bidirectional_3/concat/axis"], "attr": {"Tidx": {"type": "DT_INT32"}, "T": {"type": "DT_FLOAT"}, "N": {"i": "2"}}}, {"name": "StatefulPartitionedCall/sequential_1/bidirectional_3/forward_lstm_3/PartitionedCall/while/body/_183/while/add", "op": "AddV2", "input": ["StatefulPartitionedCall/sequential_1/bidirectional_3/forward_lstm_3/PartitionedCall/while/body/_183/while/MatMul", "StatefulPartitionedCall/sequential_1/bidirectional_3/forward_lstm_3/PartitionedCall/while/body/_183/while/MatMul_1"], "attr": {"T": {"type": "DT_FLOAT"}}}, {"name": "StatefulPartitionedCall/sequential_1/bidirectional_3/backward_lstm_3/PartitionedCall/while/body/_243/while/add", "op": "AddV2", "input": ["StatefulPartitionedCall/sequential_1/bidirectional_3/backward_lstm_3/PartitionedCall/while/body/_243/while/MatMul", "StatefulPartitionedCall/sequential_1/bidirectional_3/backward_lstm_3/PartitionedCall/while/body/_243/while/MatMul_1"], "attr": {"T": {"type": "DT_FLOAT"}}}, {"name": "StatefulPartitionedCall/sequential_1/dense_1/BiasAdd", "op": "_FusedMatMul", "input": ["StatefulPartitionedCall/sequential_1/bidirectional_3/concat", "StatefulPartitionedCall/sequential_1/dense_1/MatMul/ReadVariableOp", "StatefulPartitionedCall/sequential_1/dense_1/BiasAdd/ReadVariableOp"], "device": "/device:CPU:0", "attr": {"epsilon": {"f": 0.0}, "num_args": {"i": "1"}, "fused_ops": {"list": {"s": ["Qmlhc0FkZA=="]}}, "transpose_b": {"b": false}, "transpose_a": {"b": false}, "T": {"type": "DT_FLOAT"}}}, {"name": "StatefulPartitionedCall/sequential_1/bidirectional_3/forward_lstm_3/PartitionedCall/while/body/_183/while/BiasAdd", "op": "BiasAdd", "input": ["StatefulPartitionedCall/sequential_1/bidirectional_3/forward_lstm_3/PartitionedCall/while/body/_183/while/add", "StatefulPartitionedCall/sequential_1/bidirectional_3/forward_lstm_3/PartitionedCall/while/Func/StatefulPartitionedCall/sequential_1/bidirectional_3/forward_lstm_3/PartitionedCall/input/_45_switch/_217:1"], "attr": {"T": {"type": "DT_FLOAT"}, "data_format": {"s": "TkhXQw=="}}}, {"name": "StatefulPartitionedCall/sequential_1/bidirectional_3/backward_lstm_3/PartitionedCall/while/body/_243/while/BiasAdd", "op": "BiasAdd", "input": ["StatefulPartitionedCall/sequential_1/bidirectional_3/backward_lstm_3/PartitionedCall/while/body/_243/while/add", "StatefulPartitionedCall/sequential_1/bidirectional_3/backward_lstm_3/PartitionedCall/while/Func/StatefulPartitionedCall/sequential_1/bidirectional_3/backward_lstm_3/PartitionedCall/input/_56_switch/_277:1"], "attr": {"data_format": {"s": "TkhXQw=="}, "T": {"type": "DT_FLOAT"}}}, {"name": "StatefulPartitionedCall/sequential_1/dense_1/Softmax", "op": "Softmax", "input": ["StatefulPartitionedCall/sequential_1/dense_1/BiasAdd"], "attr": {"T": {"type": "DT_FLOAT"}}}, {"name": "StatefulPartitionedCall/sequential_1/bidirectional_3/forward_lstm_3/PartitionedCall/while/body/_183/while/split", "op": "Split", "input": ["StatefulPartitionedCall/sequential_1/bidirectional_3/forward_lstm_3/PartitionedCall/while/body/_183/while/split/split_dim", "StatefulPartitionedCall/sequential_1/bidirectional_3/forward_lstm_3/PartitionedCall/while/body/_183/while/BiasAdd"], "attr": {"num_split": {"i": "4"}, "T": {"type": "DT_FLOAT"}}}, {"name": "StatefulPartitionedCall/sequential_1/bidirectional_3/backward_lstm_3/PartitionedCall/while/body/_243/while/split", "op": "Split", "input": ["StatefulPartitionedCall/sequential_1/bidirectional_3/backward_lstm_3/PartitionedCall/while/body/_243/while/split/split_dim", "StatefulPartitionedCall/sequential_1/bidirectional_3/backward_lstm_3/PartitionedCall/while/body/_243/while/BiasAdd"], "attr": {"T": {"type": "DT_FLOAT"}, "num_split": {"i": "4"}}}, {"name": "Identity", "op": "Identity", "input": ["StatefulPartitionedCall/sequential_1/dense_1/Softmax", "^StatefulPartitionedCall/sequential_1/embedding_1/embedding_lookup"], "attr": {"T": {"type": "DT_FLOAT"}}}, {"name": "StatefulPartitionedCall/sequential_1/bidirectional_3/forward_lstm_3/PartitionedCall/while/body/_183/while/Sigmoid", "op": "Sigmoid", "input": ["StatefulPartitionedCall/sequential_1/bidirectional_3/forward_lstm_3/PartitionedCall/while/body/_183/while/split"], "attr": {"T": {"type": "DT_FLOAT"}}}, {"name": "StatefulPartitionedCall/sequential_1/bidirectional_3/forward_lstm_3/PartitionedCall/while/body/_183/while/Sigmoid_1", "op": "Sigmoid", "input": ["StatefulPartitionedCall/sequential_1/bidirectional_3/forward_lstm_3/PartitionedCall/while/body/_183/while/split:1"], "attr": {"T": {"type": "DT_FLOAT"}}}, {"name": "StatefulPartitionedCall/sequential_1/bidirectional_3/forward_lstm_3/PartitionedCall/while/body/_183/while/Tanh", "op": "Tanh", "input": ["StatefulPartitionedCall/sequential_1/bidirectional_3/forward_lstm_3/PartitionedCall/while/body/_183/while/split:2"], "attr": {"T": {"type": "DT_FLOAT"}}}, {"name": "StatefulPartitionedCall/sequential_1/bidirectional_3/forward_lstm_3/PartitionedCall/while/body/_183/while/Sigmoid_2", "op": "Sigmoid", "input": ["StatefulPartitionedCall/sequential_1/bidirectional_3/forward_lstm_3/PartitionedCall/while/body/_183/while/split:3"], "attr": {"T": {"type": "DT_FLOAT"}}}, {"name": "StatefulPartitionedCall/sequential_1/bidirectional_3/backward_lstm_3/PartitionedCall/while/body/_243/while/Sigmoid", "op": "Sigmoid", "input": ["StatefulPartitionedCall/sequential_1/bidirectional_3/backward_lstm_3/PartitionedCall/while/body/_243/while/split"], "attr": {"T": {"type": "DT_FLOAT"}}}, {"name": "StatefulPartitionedCall/sequential_1/bidirectional_3/backward_lstm_3/PartitionedCall/while/body/_243/while/Sigmoid_1", "op": "Sigmoid", "input": ["StatefulPartitionedCall/sequential_1/bidirectional_3/backward_lstm_3/PartitionedCall/while/body/_243/while/split:1"], "attr": {"T": {"type": "DT_FLOAT"}}}, {"name": "StatefulPartitionedCall/sequential_1/bidirectional_3/backward_lstm_3/PartitionedCall/while/body/_243/while/Tanh", "op": "Tanh", "input": ["StatefulPartitionedCall/sequential_1/bidirectional_3/backward_lstm_3/PartitionedCall/while/body/_243/while/split:2"], "attr": {"T": {"type": "DT_FLOAT"}}}, {"name": "StatefulPartitionedCall/sequential_1/bidirectional_3/backward_lstm_3/PartitionedCall/while/body/_243/while/Sigmoid_2", "op": "Sigmoid", "input": ["StatefulPartitionedCall/sequential_1/bidirectional_3/backward_lstm_3/PartitionedCall/while/body/_243/while/split:3"], "attr": {"T": {"type": "DT_FLOAT"}}}, {"name": "StatefulPartitionedCall/sequential_1/bidirectional_3/forward_lstm_3/PartitionedCall/while/body/_183/while/mul", "op": "Mul", "input": ["StatefulPartitionedCall/sequential_1/bidirectional_3/forward_lstm_3/PartitionedCall/while/body/_183/while/Sigmoid_1", "StatefulPartitionedCall/sequential_1/bidirectional_3/forward_lstm_3/PartitionedCall/while/Func/StatefulPartitionedCall/sequential_1/bidirectional_3/forward_lstm_3/PartitionedCall/input/_42_switch/_212:1"], "attr": {"T": {"type": "DT_FLOAT"}}}, {"name": "StatefulPartitionedCall/sequential_1/bidirectional_3/forward_lstm_3/PartitionedCall/while/body/_183/while/mul_1", "op": "Mul", "input": ["StatefulPartitionedCall/sequential_1/bidirectional_3/forward_lstm_3/PartitionedCall/while/body/_183/while/Sigmoid", "StatefulPartitionedCall/sequential_1/bidirectional_3/forward_lstm_3/PartitionedCall/while/body/_183/while/Tanh"], "attr": {"T": {"type": "DT_FLOAT"}}}, {"name": "StatefulPartitionedCall/sequential_1/bidirectional_3/backward_lstm_3/PartitionedCall/while/body/_243/while/mul", "op": "Mul", "input": ["StatefulPartitionedCall/sequential_1/bidirectional_3/backward_lstm_3/PartitionedCall/while/body/_243/while/Sigmoid_1", "StatefulPartitionedCall/sequential_1/bidirectional_3/backward_lstm_3/PartitionedCall/while/Func/StatefulPartitionedCall/sequential_1/bidirectional_3/backward_lstm_3/PartitionedCall/input/_53_switch/_272:1"], "attr": {"T": {"type": "DT_FLOAT"}}}, {"name": "StatefulPartitionedCall/sequential_1/bidirectional_3/backward_lstm_3/PartitionedCall/while/body/_243/while/mul_1", "op": "Mul", "input": ["StatefulPartitionedCall/sequential_1/bidirectional_3/backward_lstm_3/PartitionedCall/while/body/_243/while/Sigmoid", "StatefulPartitionedCall/sequential_1/bidirectional_3/backward_lstm_3/PartitionedCall/while/body/_243/while/Tanh"], "attr": {"T": {"type": "DT_FLOAT"}}}, {"name": "StatefulPartitionedCall/sequential_1/bidirectional_3/forward_lstm_3/PartitionedCall/while/body/_183/while/add_1", "op": "AddV2", "input": ["StatefulPartitionedCall/sequential_1/bidirectional_3/forward_lstm_3/PartitionedCall/while/body/_183/while/mul", "StatefulPartitionedCall/sequential_1/bidirectional_3/forward_lstm_3/PartitionedCall/while/body/_183/while/mul_1"], "attr": {"T": {"type": "DT_FLOAT"}}}, {"name": "StatefulPartitionedCall/sequential_1/bidirectional_3/backward_lstm_3/PartitionedCall/while/body/_243/while/add_1", "op": "AddV2", "input": ["StatefulPartitionedCall/sequential_1/bidirectional_3/backward_lstm_3/PartitionedCall/while/body/_243/while/mul", "StatefulPartitionedCall/sequential_1/bidirectional_3/backward_lstm_3/PartitionedCall/while/body/_243/while/mul_1"], "attr": {"T": {"type": "DT_FLOAT"}}}, {"name": "StatefulPartitionedCall/sequential_1/bidirectional_3/forward_lstm_3/PartitionedCall/while/body/_183/while/Tanh_1", "op": "Tanh", "input": ["StatefulPartitionedCall/sequential_1/bidirectional_3/forward_lstm_3/PartitionedCall/while/body/_183/while/add_1"], "attr": {"T": {"type": "DT_FLOAT"}}}, {"name": "StatefulPartitionedCall/sequential_1/bidirectional_3/forward_lstm_3/PartitionedCall/while/next_iteration/_236", "op": "NextIteration", "input": ["StatefulPartitionedCall/sequential_1/bidirectional_3/forward_lstm_3/PartitionedCall/while/body/_183/while/add_1", "^StatefulPartitionedCall/sequential_1/bidirectional_3/forward_lstm_3/PartitionedCall/while/loop_body_control/_218"], "attr": {"T": {"type": "DT_FLOAT"}}}, {"name": "StatefulPartitionedCall/sequential_1/bidirectional_3/backward_lstm_3/PartitionedCall/while/body/_243/while/Tanh_1", "op": "Tanh", "input": ["StatefulPartitionedCall/sequential_1/bidirectional_3/backward_lstm_3/PartitionedCall/while/body/_243/while/add_1"], "attr": {"T": {"type": "DT_FLOAT"}}}, {"name": "StatefulPartitionedCall/sequential_1/bidirectional_3/backward_lstm_3/PartitionedCall/while/next_iteration/_296", "op": "NextIteration", "input": ["StatefulPartitionedCall/sequential_1/bidirectional_3/backward_lstm_3/PartitionedCall/while/body/_243/while/add_1", "^StatefulPartitionedCall/sequential_1/bidirectional_3/backward_lstm_3/PartitionedCall/while/loop_body_control/_278"], "attr": {"T": {"type": "DT_FLOAT"}}}, {"name": "StatefulPartitionedCall/sequential_1/bidirectional_3/forward_lstm_3/PartitionedCall/while/body/_183/while/mul_2", "op": "Mul", "input": ["StatefulPartitionedCall/sequential_1/bidirectional_3/forward_lstm_3/PartitionedCall/while/body/_183/while/Sigmoid_2", "StatefulPartitionedCall/sequential_1/bidirectional_3/forward_lstm_3/PartitionedCall/while/body/_183/while/Tanh_1"], "attr": {"T": {"type": "DT_FLOAT"}}}, {"name": "StatefulPartitionedCall/sequential_1/bidirectional_3/backward_lstm_3/PartitionedCall/while/body/_243/while/mul_2", "op": "Mul", "input": ["StatefulPartitionedCall/sequential_1/bidirectional_3/backward_lstm_3/PartitionedCall/while/body/_243/while/Sigmoid_2", "StatefulPartitionedCall/sequential_1/bidirectional_3/backward_lstm_3/PartitionedCall/while/body/_243/while/Tanh_1"], "attr": {"T": {"type": "DT_FLOAT"}}}, {"name": "StatefulPartitionedCall/sequential_1/bidirectional_3/forward_lstm_3/PartitionedCall/while/next_iteration/_235", "op": "NextIteration", "input": ["StatefulPartitionedCall/sequential_1/bidirectional_3/forward_lstm_3/PartitionedCall/while/body/_183/while/mul_2", "^StatefulPartitionedCall/sequential_1/bidirectional_3/forward_lstm_3/PartitionedCall/while/loop_body_control/_218"], "attr": {"T": {"type": "DT_FLOAT"}}}, {"name": "StatefulPartitionedCall/sequential_1/bidirectional_3/forward_lstm_3/PartitionedCall/while/body/_183/while/TensorArrayV2Write/TensorListSetItem", "op": "TensorListSetItem", "input": ["StatefulPartitionedCall/sequential_1/bidirectional_3/forward_lstm_3/PartitionedCall/while/StatefulPartitionedCall/sequential_1/bidirectional_3/forward_lstm_3/PartitionedCall/TensorArrayV2_1_switch/_210:1", "Func/StatefulPartitionedCall/sequential_1/bidirectional_3/forward_lstm_3/PartitionedCall/while/body/_183/input/_392", "StatefulPartitionedCall/sequential_1/bidirectional_3/forward_lstm_3/PartitionedCall/while/body/_183/while/mul_2"], "attr": {"element_dtype": {"type": "DT_FLOAT"}}}, {"name": "StatefulPartitionedCall/sequential_1/bidirectional_3/backward_lstm_3/PartitionedCall/while/next_iteration/_295", "op": "NextIteration", "input": ["StatefulPartitionedCall/sequential_1/bidirectional_3/backward_lstm_3/PartitionedCall/while/body/_243/while/mul_2", "^StatefulPartitionedCall/sequential_1/bidirectional_3/backward_lstm_3/PartitionedCall/while/loop_body_control/_278"], "attr": {"T": {"type": "DT_FLOAT"}}}, {"name": "StatefulPartitionedCall/sequential_1/bidirectional_3/backward_lstm_3/PartitionedCall/while/body/_243/while/TensorArrayV2Write/TensorListSetItem", "op": "TensorListSetItem", "input": ["StatefulPartitionedCall/sequential_1/bidirectional_3/backward_lstm_3/PartitionedCall/while/StatefulPartitionedCall/sequential_1/bidirectional_3/backward_lstm_3/PartitionedCall/TensorArrayV2_1_switch/_270:1", "Func/StatefulPartitionedCall/sequential_1/bidirectional_3/backward_lstm_3/PartitionedCall/while/body/_243/input/_429", "StatefulPartitionedCall/sequential_1/bidirectional_3/backward_lstm_3/PartitionedCall/while/body/_243/while/mul_2"], "attr": {"element_dtype": {"type": "DT_FLOAT"}}}, {"name": "StatefulPartitionedCall/sequential_1/bidirectional_3/forward_lstm_3/PartitionedCall/while/next_iteration/_234", "op": "NextIteration", "input": ["StatefulPartitionedCall/sequential_1/bidirectional_3/forward_lstm_3/PartitionedCall/while/body/_183/while/TensorArrayV2Write/TensorListSetItem", "^StatefulPartitionedCall/sequential_1/bidirectional_3/forward_lstm_3/PartitionedCall/while/loop_body_control/_218"], "attr": {"T": {"type": "DT_VARIANT"}}}, {"name": "StatefulPartitionedCall/sequential_1/bidirectional_3/backward_lstm_3/PartitionedCall/while/next_iteration/_294", "op": "NextIteration", "input": ["StatefulPartitionedCall/sequential_1/bidirectional_3/backward_lstm_3/PartitionedCall/while/body/_243/while/TensorArrayV2Write/TensorListSetItem", "^StatefulPartitionedCall/sequential_1/bidirectional_3/backward_lstm_3/PartitionedCall/while/loop_body_control/_278"], "attr": {"T": {"type": "DT_VARIANT"}}}], "library": {}, "versions": {"producer": 808}}, "weightsManifest": [{"paths": ["group1-shard1of15.bin", "group1-shard2of15.bin", "group1-shard3of15.bin", "group1-shard4of15.bin", "group1-shard5of15.bin", "group1-shard6of15.bin", "group1-shard7of15.bin", "group1-shard8of15.bin", "group1-shard9of15.bin", "group1-shard10of15.bin", "group1-shard11of15.bin", "group1-shard12of15.bin", "group1-shard13of15.bin", "group1-shard14of15.bin", "group1-shard15of15.bin"], "weights": [{"name": "StatefulPartitionedCall/sequential_1/bidirectional_3/forward_lstm_3/PartitionedCall/TensorArrayV2_1/element_shape", "shape": [2], "dtype": "int32"}, {"name": "StatefulPartitionedCall/sequential_1/bidirectional_3/forward_lstm_3/zeros_1/packed/1", "shape": [], "dtype": "int32"}, {"name": "StatefulPartitionedCall/sequential_1/bidirectional_3/forward_lstm_3/zeros_1/Const", "shape": [], "dtype": "float32"}, {"name": "StatefulPartitionedCall/sequential_1/bidirectional_3/forward_lstm_3/PartitionedCall/TensorArrayUnstack/TensorListFromTensor/element_shape", "shape": [2], "dtype": "int32"}, {"name": "StatefulPartitionedCall/sequential_1/bidirectional_3/forward_lstm_3/Read/ReadVariableOp", "shape": [200, 400], "dtype": "float32"}, {"name": "StatefulPartitionedCall/sequential_1/bidirectional_3/forward_lstm_3/strided_slice/stack", "shape": [1], "dtype": "int32"}, {"name": "StatefulPartitionedCall/sequential_1/bidirectional_3/forward_lstm_3/strided_slice/stack_1", "shape": [1], "dtype": "int32"}, {"name": "StatefulPartitionedCall/sequential_1/bidirectional_3/forward_lstm_3/strided_slice/stack_2", "shape": [1], "dtype": "int32"}, {"name": "StatefulPartitionedCall/sequential_1/bidirectional_3/forward_lstm_3/zeros/packed/1", "shape": [], "dtype": "int32"}, {"name": "StatefulPartitionedCall/sequential_1/bidirectional_3/forward_lstm_3/zeros/Const", "shape": [], "dtype": "float32"}, {"name": "StatefulPartitionedCall/sequential_1/bidirectional_3/forward_lstm_3/Read_1/ReadVariableOp", "shape": [100, 400], "dtype": "float32"}, {"name": "StatefulPartitionedCall/sequential_1/bidirectional_3/forward_lstm_3/Read_2/ReadVariableOp", "shape": [400], "dtype": "float32"}, {"name": "StatefulPartitionedCall/sequential_1/bidirectional_3/forward_lstm_3/PartitionedCall/time", "shape": [], "dtype": "int32"}, {"name": "StatefulPartitionedCall/sequential_1/bidirectional_3/forward_lstm_3/PartitionedCall/transpose/perm", "shape": [3], "dtype": "int32"}, {"name": "StatefulPartitionedCall/sequential_1/bidirectional_3/forward_lstm_3/PartitionedCall/strided_slice/stack", "shape": [1], "dtype": "int32"}, {"name": "StatefulPartitionedCall/sequential_1/bidirectional_3/forward_lstm_3/PartitionedCall/strided_slice/stack_1", "shape": [1], "dtype": "int32"}, {"name": "StatefulPartitionedCall/sequential_1/bidirectional_3/forward_lstm_3/PartitionedCall/strided_slice/stack_2", "shape": [1], "dtype": "int32"}, {"name": "StatefulPartitionedCall/sequential_1/bidirectional_3/forward_lstm_3/PartitionedCall/while/loop_counter", "shape": [], "dtype": "int32"}, {"name": "StatefulPartitionedCall/sequential_1/bidirectional_3/forward_lstm_3/PartitionedCall/TensorArrayV2Stack/TensorListStack/element_shape", "shape": [2], "dtype": "int32"}, {"name": "StatefulPartitionedCall/sequential_1/bidirectional_3/forward_lstm_3/PartitionedCall/strided_slice_2/stack", "shape": [1], "dtype": "int32"}, {"name": "StatefulPartitionedCall/sequential_1/bidirectional_3/forward_lstm_3/PartitionedCall/strided_slice_2/stack_1", "shape": [1], "dtype": "int32"}, {"name": "StatefulPartitionedCall/sequential_1/bidirectional_3/forward_lstm_3/PartitionedCall/strided_slice_2/stack_2", "shape": [1], "dtype": "int32"}, {"name": "StatefulPartitionedCall/sequential_1/bidirectional_3/backward_lstm_3/PartitionedCall/TensorArrayV2_1/element_shape", "shape": [2], "dtype": "int32"}, {"name": "StatefulPartitionedCall/sequential_1/bidirectional_3/backward_lstm_3/zeros_1/packed/1", "shape": [], "dtype": "int32"}, {"name": "StatefulPartitionedCall/sequential_1/bidirectional_3/backward_lstm_3/zeros_1/Const", "shape": [], "dtype": "float32"}, {"name": "StatefulPartitionedCall/sequential_1/bidirectional_3/backward_lstm_3/PartitionedCall/ReverseV2/axis", "shape": [1], "dtype": "int32"}, {"name": "StatefulPartitionedCall/sequential_1/bidirectional_3/backward_lstm_3/PartitionedCall/TensorArrayUnstack/TensorListFromTensor/element_shape", "shape": [2], "dtype": "int32"}, {"name": "StatefulPartitionedCall/sequential_1/bidirectional_3/backward_lstm_3/Read/ReadVariableOp", "shape": [200, 400], "dtype": "float32"}, {"name": "StatefulPartitionedCall/sequential_1/bidirectional_3/backward_lstm_3/strided_slice/stack", "shape": [1], "dtype": "int32"}, {"name": "StatefulPartitionedCall/sequential_1/bidirectional_3/backward_lstm_3/strided_slice/stack_1", "shape": [1], "dtype": "int32"}, {"name": "StatefulPartitionedCall/sequential_1/bidirectional_3/backward_lstm_3/strided_slice/stack_2", "shape": [1], "dtype": "int32"}, {"name": "StatefulPartitionedCall/sequential_1/bidirectional_3/backward_lstm_3/zeros/packed/1", "shape": [], "dtype": "int32"}, {"name": "StatefulPartitionedCall/sequential_1/bidirectional_3/backward_lstm_3/zeros/Const", "shape": [], "dtype": "float32"}, {"name": "StatefulPartitionedCall/sequential_1/bidirectional_3/backward_lstm_3/Read_1/ReadVariableOp", "shape": [100, 400], "dtype": "float32"}, {"name": "StatefulPartitionedCall/sequential_1/bidirectional_3/backward_lstm_3/Read_2/ReadVariableOp", "shape": [400], "dtype": "float32"}, {"name": "StatefulPartitionedCall/sequential_1/bidirectional_3/backward_lstm_3/PartitionedCall/time", "shape": [], "dtype": "int32"}, {"name": "StatefulPartitionedCall/sequential_1/bidirectional_2/forward_lstm_2/PartitionedCall/TensorArrayV2_1/element_shape", "shape": [2], "dtype": "int32"}, {"name": "StatefulPartitionedCall/sequential_1/bidirectional_2/forward_lstm_2/zeros_1/packed/1", "shape": [], "dtype": "int32"}, {"name": "StatefulPartitionedCall/sequential_1/bidirectional_2/forward_lstm_2/zeros_1/Const", "shape": [], "dtype": "float32"}, {"name": "StatefulPartitionedCall/sequential_1/bidirectional_2/forward_lstm_2/PartitionedCall/TensorArrayUnstack/TensorListFromTensor/element_shape", "shape": [2], "dtype": "int32"}, {"name": "StatefulPartitionedCall/sequential_1/bidirectional_2/forward_lstm_2/Read/ReadVariableOp", "shape": [100, 400], "dtype": "float32"}, {"name": "StatefulPartitionedCall/sequential_1/bidirectional_2/forward_lstm_2/strided_slice/stack", "shape": [1], "dtype": "int32"}, {"name": "StatefulPartitionedCall/sequential_1/bidirectional_2/forward_lstm_2/strided_slice/stack_1", "shape": [1], "dtype": "int32"}, {"name": "StatefulPartitionedCall/sequential_1/bidirectional_2/forward_lstm_2/strided_slice/stack_2", "shape": [1], "dtype": "int32"}, {"name": "StatefulPartitionedCall/sequential_1/bidirectional_2/forward_lstm_2/zeros/packed/1", "shape": [], "dtype": "int32"}, {"name": "StatefulPartitionedCall/sequential_1/bidirectional_2/forward_lstm_2/zeros/Const", "shape": [], "dtype": "float32"}, {"name": "StatefulPartitionedCall/sequential_1/bidirectional_2/forward_lstm_2/Read_1/ReadVariableOp", "shape": [100, 400], "dtype": "float32"}, {"name": "StatefulPartitionedCall/sequential_1/bidirectional_2/forward_lstm_2/Read_2/ReadVariableOp", "shape": [400], "dtype": "float32"}, {"name": "StatefulPartitionedCall/sequential_1/bidirectional_2/forward_lstm_2/PartitionedCall/time", "shape": [], "dtype": "int32"}, {"name": "StatefulPartitionedCall/sequential_1/bidirectional_2/forward_lstm_2/PartitionedCall/transpose/perm", "shape": [3], "dtype": "int32"}, {"name": "StatefulPartitionedCall/sequential_1/bidirectional_2/forward_lstm_2/PartitionedCall/strided_slice/stack", "shape": [1], "dtype": "int32"}, {"name": "StatefulPartitionedCall/sequential_1/bidirectional_2/forward_lstm_2/PartitionedCall/strided_slice/stack_1", "shape": [1], "dtype": "int32"}, {"name": "StatefulPartitionedCall/sequential_1/bidirectional_2/forward_lstm_2/PartitionedCall/strided_slice/stack_2", "shape": [1], "dtype": "int32"}, {"name": "StatefulPartitionedCall/sequential_1/bidirectional_2/forward_lstm_2/PartitionedCall/while/loop_counter", "shape": [], "dtype": "int32"}, {"name": "StatefulPartitionedCall/sequential_1/bidirectional_2/forward_lstm_2/PartitionedCall/TensorArrayV2Stack/TensorListStack/element_shape", "shape": [2], "dtype": "int32"}, {"name": "StatefulPartitionedCall/sequential_1/bidirectional_2/forward_lstm_2/PartitionedCall/transpose_1/perm", "shape": [3], "dtype": "int32"}, {"name": "StatefulPartitionedCall/sequential_1/bidirectional_2/backward_lstm_2/PartitionedCall/TensorArrayV2_1/element_shape", "shape": [2], "dtype": "int32"}, {"name": "StatefulPartitionedCall/sequential_1/bidirectional_2/backward_lstm_2/zeros_1/packed/1", "shape": [], "dtype": "int32"}, {"name": "StatefulPartitionedCall/sequential_1/bidirectional_2/backward_lstm_2/zeros_1/Const", "shape": [], "dtype": "float32"}, {"name": "StatefulPartitionedCall/sequential_1/bidirectional_2/backward_lstm_2/PartitionedCall/ReverseV2/axis", "shape": [1], "dtype": "int32"}, {"name": "StatefulPartitionedCall/sequential_1/bidirectional_2/backward_lstm_2/PartitionedCall/TensorArrayUnstack/TensorListFromTensor/element_shape", "shape": [2], "dtype": "int32"}, {"name": "StatefulPartitionedCall/sequential_1/bidirectional_2/backward_lstm_2/Read/ReadVariableOp", "shape": [100, 400], "dtype": "float32"}, {"name": "StatefulPartitionedCall/sequential_1/bidirectional_2/backward_lstm_2/strided_slice/stack", "shape": [1], "dtype": "int32"}, {"name": "StatefulPartitionedCall/sequential_1/bidirectional_2/backward_lstm_2/strided_slice/stack_1", "shape": [1], "dtype": "int32"}, {"name": "StatefulPartitionedCall/sequential_1/bidirectional_2/backward_lstm_2/strided_slice/stack_2", "shape": [1], "dtype": "int32"}, {"name": "StatefulPartitionedCall/sequential_1/bidirectional_2/backward_lstm_2/zeros/packed/1", "shape": [], "dtype": "int32"}, {"name": "StatefulPartitionedCall/sequential_1/bidirectional_2/backward_lstm_2/zeros/Const", "shape": [], "dtype": "float32"}, {"name": "StatefulPartitionedCall/sequential_1/bidirectional_2/backward_lstm_2/Read_1/ReadVariableOp", "shape": [100, 400], "dtype": "float32"}, {"name": "StatefulPartitionedCall/sequential_1/bidirectional_2/backward_lstm_2/Read_2/ReadVariableOp", "shape": [400], "dtype": "float32"}, {"name": "StatefulPartitionedCall/sequential_1/bidirectional_2/backward_lstm_2/PartitionedCall/time", "shape": [], "dtype": "int32"}, {"name": "StatefulPartitionedCall/sequential_1/bidirectional_2/backward_lstm_2/PartitionedCall/transpose/perm", "shape": [3], "dtype": "int32"}, {"name": "StatefulPartitionedCall/sequential_1/bidirectional_2/backward_lstm_2/PartitionedCall/strided_slice/stack", "shape": [1], "dtype": "int32"}, {"name": "StatefulPartitionedCall/sequential_1/bidirectional_2/backward_lstm_2/PartitionedCall/strided_slice/stack_1", "shape": [1], "dtype": "int32"}, {"name": "StatefulPartitionedCall/sequential_1/bidirectional_2/backward_lstm_2/PartitionedCall/strided_slice/stack_2", "shape": [1], "dtype": "int32"}, {"name": "StatefulPartitionedCall/sequential_1/bidirectional_2/backward_lstm_2/PartitionedCall/while/loop_counter", "shape": [], "dtype": "int32"}, {"name": "StatefulPartitionedCall/sequential_1/bidirectional_2/backward_lstm_2/PartitionedCall/TensorArrayV2Stack/TensorListStack/element_shape", "shape": [2], "dtype": "int32"}, {"name": "StatefulPartitionedCall/sequential_1/bidirectional_2/backward_lstm_2/PartitionedCall/transpose_1/perm", "shape": [3], "dtype": "int32"}, {"name": "StatefulPartitionedCall/sequential_1/bidirectional_2/ReverseV2/axis", "shape": [1], "dtype": "int32"}, {"name": "StatefulPartitionedCall/sequential_1/bidirectional_2/concat/axis", "shape": [], "dtype": "int32"}, {"name": "StatefulPartitionedCall/sequential_1/bidirectional_3/backward_lstm_3/PartitionedCall/transpose/perm", "shape": [3], "dtype": "int32"}, {"name": "StatefulPartitionedCall/sequential_1/bidirectional_3/backward_lstm_3/PartitionedCall/strided_slice/stack", "shape": [1], "dtype": "int32"}, {"name": "StatefulPartitionedCall/sequential_1/bidirectional_3/backward_lstm_3/PartitionedCall/strided_slice/stack_1", "shape": [1], "dtype": "int32"}, {"name": "StatefulPartitionedCall/sequential_1/bidirectional_3/backward_lstm_3/PartitionedCall/strided_slice/stack_2", "shape": [1], "dtype": "int32"}, {"name": "StatefulPartitionedCall/sequential_1/bidirectional_3/backward_lstm_3/PartitionedCall/while/loop_counter", "shape": [], "dtype": "int32"}, {"name": "StatefulPartitionedCall/sequential_1/bidirectional_3/backward_lstm_3/PartitionedCall/TensorArrayV2Stack/TensorListStack/element_shape", "shape": [2], "dtype": "int32"}, {"name": "StatefulPartitionedCall/sequential_1/bidirectional_3/backward_lstm_3/PartitionedCall/strided_slice_2/stack", "shape": [1], "dtype": "int32"}, {"name": "StatefulPartitionedCall/sequential_1/bidirectional_3/backward_lstm_3/PartitionedCall/strided_slice_2/stack_1", "shape": [1], "dtype": "int32"}, {"name": "StatefulPartitionedCall/sequential_1/bidirectional_3/backward_lstm_3/PartitionedCall/strided_slice_2/stack_2", "shape": [1], "dtype": "int32"}, {"name": "StatefulPartitionedCall/sequential_1/bidirectional_3/concat/axis", "shape": [], "dtype": "int32"}, {"name": "StatefulPartitionedCall/sequential_1/dense_1/MatMul/ReadVariableOp", "shape": [200, 50000], "dtype": "float32"}, {"name": "StatefulPartitionedCall/sequential_1/dense_1/BiasAdd/ReadVariableOp", "shape": [50000], "dtype": "float32"}, {"name": "unknown", "shape": [50000, 100], "dtype": "float32"}, {"name": "StatefulPartitionedCall/sequential_1/embedding_1/embedding_lookup/axis", "shape": [], "dtype": "int32"}, {"name": "StatefulPartitionedCall/sequential_1/bidirectional_2/forward_lstm_2/PartitionedCall/while/body/_63/while/split/split_dim", "shape": [], "dtype": "int32"}, {"name": "StatefulPartitionedCall/sequential_1/bidirectional_2/forward_lstm_2/PartitionedCall/while/body/_63/while/TensorArrayV2Read/TensorListGetItem/element_shape", "shape": [2], "dtype": "int32"}, {"name": "StatefulPartitionedCall/sequential_1/bidirectional_2/forward_lstm_2/PartitionedCall/while/body/_63/while/add_2/y", "shape": [], "dtype": "int32"}, {"name": "StatefulPartitionedCall/sequential_1/bidirectional_2/forward_lstm_2/PartitionedCall/while/body/_63/while/add_3/y", "shape": [], "dtype": "int32"}, {"name": "StatefulPartitionedCall/sequential_1/bidirectional_2/backward_lstm_2/PartitionedCall/while/body/_123/while/split/split_dim", "shape": [], "dtype": "int32"}, {"name": "StatefulPartitionedCall/sequential_1/bidirectional_2/backward_lstm_2/PartitionedCall/while/body/_123/while/TensorArrayV2Read/TensorListGetItem/element_shape", "shape": [2], "dtype": "int32"}, {"name": "StatefulPartitionedCall/sequential_1/bidirectional_2/backward_lstm_2/PartitionedCall/while/body/_123/while/add_2/y", "shape": [], "dtype": "int32"}, {"name": "StatefulPartitionedCall/sequential_1/bidirectional_2/backward_lstm_2/PartitionedCall/while/body/_123/while/add_3/y", "shape": [], "dtype": "int32"}, {"name": "StatefulPartitionedCall/sequential_1/bidirectional_3/forward_lstm_3/PartitionedCall/while/body/_183/while/split/split_dim", "shape": [], "dtype": "int32"}, {"name": "StatefulPartitionedCall/sequential_1/bidirectional_3/forward_lstm_3/PartitionedCall/while/body/_183/while/TensorArrayV2Read/TensorListGetItem/element_shape", "shape": [2], "dtype": "int32"}, {"name": "StatefulPartitionedCall/sequential_1/bidirectional_3/forward_lstm_3/PartitionedCall/while/body/_183/while/add_2/y", "shape": [], "dtype": "int32"}, {"name": "StatefulPartitionedCall/sequential_1/bidirectional_3/forward_lstm_3/PartitionedCall/while/body/_183/while/add_3/y", "shape": [], "dtype": "int32"}, {"name": "StatefulPartitionedCall/sequential_1/bidirectional_3/backward_lstm_3/PartitionedCall/while/body/_243/while/split/split_dim", "shape": [], "dtype": "int32"}, {"name": "StatefulPartitionedCall/sequential_1/bidirectional_3/backward_lstm_3/PartitionedCall/while/body/_243/while/TensorArrayV2Read/TensorListGetItem/element_shape", "shape": [2], "dtype": "int32"}, {"name": "StatefulPartitionedCall/sequential_1/bidirectional_3/backward_lstm_3/PartitionedCall/while/body/_243/while/add_2/y", "shape": [], "dtype": "int32"}, {"name": "StatefulPartitionedCall/sequential_1/bidirectional_3/backward_lstm_3/PartitionedCall/while/body/_243/while/add_3/y", "shape": [], "dtype": "int32"}]}]}